torch/pretrained/fmnist-vae-2d-generator.pt (torch, 868751 bytes, 7 tensors)

upsample.weight f4 [6272, 2]
-0.4355399 -0.45891207 0.026584545 -0.042144403 0.34517655 0.47566876 0.12122594 -0.1703599
0.50663406 0.15774404 0.3148806 -0.36000022 0.67806023 0.24008332 -0.5831371 -0.53873336
0.8922814 -0.53217816 0.4853377 0.5958453 -0.45833504 0.36147678 0.4630966 0.10347227
-0.020646686 0.69875026 -0.12845199 0.663004 -0.19565226 1.0523936 -0.37868136 -0.4204854
-0.7409107 -0.15288322 -0.24516073 0.50383204 0.23617727 0.7034941 0.68311036 0.16442357
-0.12772998 -0.6334889 0.101055205 0.13057385 -0.6634634 -0.26450393 0.6593626 -0.8911115
0.23022695 0.20038615 0.35546452 0.37098986 0.4111252 -0.702278 -0.46854416 -0.21115127
-0.30850366 -0.6928656 0.18888827 -0.20872383 0.85407263 0.43119827 0.6942121 0.11386831
0.080942445 0.19598433 -0.62459147 0.28870347 0.031517293 1.0985602 -0.20369709 -0.5387798
0.5196688 0.51531494 0.24947125 0.7721995 0.07583518 0.46870676 0.07110997 -0.16489987
-0.7586346 0.61328286 -0.417614 0.2682513 0.47876158 0.6458325 0.39025295 0.6989245
-0.45876813 0.10203596 0.013921272 -0.0978912 0.8827816 -0.53167444 -0.7289884 -0.34448016
0.81694186 -0.69687426 -0.19819507 1.0779096 -0.31690425 -0.3946898 0.07833789 -0.043317575
-0.44262543 0.0812842 -0.51922005 -0.8203157 0.47596815 0.23700398 0.15491126 -0.2004562
-0.42475462 -0.26335242 0.13034922 0.539814 -0.3754199 0.46370336 0.32586482 0.41821167
-0.09428308 0.26252398 -0.64552927 -0.16847771 -0.6045652 -0.751068 -0.51775545 -0.20479952
0.27154285 -0.37092933 -0.6100041 0.40139094 0.13836277 0.52413183 0.6021005 -0.2809565
-0.3176658 -0.21265201 -0.39596558 -0.24394093 -0.74851084 0.032157052 -0.46115044 0.09106634
-0.63696074 -0.03234587 0.25228748 -0.14599375 0.5666215 0.06673449 -0.32295433 -0.44937116
-0.5076227 -0.31193635 0.86319095 -0.32192338 0.13785143 -0.5138904 0.061974935 0.4910999
-0.47074902 -0.72553086 0.7389377 0.5523711 -0.8288641 -0.7325723 0.5442115 -0.4046596
0.37094864 -0.54760975 -0.720415 -0.60816306 0.109209664 0.5611744 0.78628576 -0.41566035
-0.28185487 0.3817605 0.8620108 0.63827544 0.49550328 -0.27277264 0.20383433 -0.43400288
0.039734032 -0.43787742 0.55625784 0.33143738 0.42559296 0.29407597 0.35703975 -0.46099022
-0.5425551 -0.39467195 -0.4542433 0.26071632 0.41673738 -0.269573 1.2743088 0.14071032
-0.07324199 -0.21311559 -0.45871425 -0.026965594 -0.0011515173 -0.45130354 0.8258138 0.24581146
-0.5717652 -0.13566819 -0.5552987 -0.2217791 0.37892994 0.2631069 0.9415506 0.12788664
-0.37090227 0.121839136 0.90858734 0.6037704 -0.00630079 0.088205665 -0.46959 0.47500727
0.27613148 0.31329268 -0.36255074 -0.57699376 -0.08364333 -0.60818225 -0.21408653 -0.26647127
0.48945078 -0.1031257 0.7768791 0.2805709 0.6850166 -0.5244035 -0.48818883 -0.1955669
0.73170024 -0.13851576 0.75904703 0.038848866 0.7207092 -0.19070815 0.6512584 -0.1791293
-0.60337967 0.3050245 0.7036949 0.33254623 -0.43334764 -0.51381433 0.6853146 0.4078477
00000000: 16ff debe 86f6 eabe d5c7 d93c 9c9f 2cbd
00000010: fbba b03e db8a f33e 4e45 f83d d372 2ebe
00000020: c5b2 013f a787 213e 0838 a13e f351 b8be
00000030: 5b95 2d3f 67d8 753e 7948 15bf 6eea 09bf
00000040: 8e6c 643f d43c 08bf 2f7e f83e 5189 183f
00000050: e4aa eabe 7c13 b93e ff1a ed3e 45e9 d33d
00000060: 3d23 a9bc 4ce1 323f eb88 03be a1ba 293f
00000070: 1159 48be d5b4 863f 86e2 c1be dd49 d7be
00000080: 53ac 3dbf 6b8d 1cbe 6a0b 7bbe 23fb 003f
00000090: 74d8 713e 3018 343f 52e0 2e3f a75e 283e
000000a0: a6cb 02be 542c 22bf 08f6 ce3d 27b5 053e
000000b0: bdd8 29bf 0f6d 87be fdcb 283f e21f 64bf
000000c0: 9dc0 6b3e 0732 4d3e 72ff b53e 62f2 bd3e
000000d0: 017f d23e 7ec8 33bf 05e5 efbe 0a38 58be
000000e0: 31f4 9dbe a45f 31bf ed6b 413e b3bb 55be
000000f0: 81a4 5a3f 05c6 dc3e e2b7 313f ca33 e93d
00000100: 27c5 a53d 1eb0 483e 3ae5 1fbf f1d0 933e
00000110: 4718 013d 9f9d 8c3f f895 50be 79ed 09bf
00000120: 0409 053f aeeb 033f 6475 7f3e deae 453f
00000130: 7a4f 9b3d 55fa ef3e 1ba2 913d 83db 28be
00000140: e135 42bf 1b00 1d3f 81d1 d5be 3c58 893e
00000150: 3d20 f53e 4755 253f 3ccf c73e b7ec 323f
00000160: a8e3 eabe 3bf8 d03d 0c16 643c 2e7b c8bd
00000170: fafd 613f d11b 08bf fc9e 3abf b45f b0be
00000180: 1a23 513f 5a66 32bf a6f3 4abe f1f8 893f
00000190: 4641 a2be c814 cabe 9e6f a03d c56d 31bd
000001a0: cd9f e2be 5578 a63d 9beb 04bf 3600 52bf
000001b0: 19b2 f33e 2cb1 723e 0fa1 1e3e 6444 4dbe
000001c0: 7079 d9be 21d6 86be 447a 053e 4031 0a3f
000001d0: 0a37 c0be 876a ed3e c1d7 a63e d71f d63e
000001e0: 7d17 c1bd 8b69 863e 6841 25bf 6c85 2cbe
000001f0: c9c4 1abf fe45 40bf 9f8b 04bf f7b6 51be
00000200: aa07 8b3e 73ea bdbe 3b29 1cbf 1d83 cd3e
00000210: f8ae 0d3e 812d 063f 4223 1a3f 88d9 8fbe
00000220: 17a5 a2be 73c1 59be 00bc cabe a7cb 79be
00000230: 689e 3fbf 1db7 033d e91b ecbe fd80 ba3d
00000240: dc0f 23bf 1a7d 04bd d32b 813e 637f 15be
00000250: 1b0e 113f 18ac 883d 455a a5be fa13 e6be
00000260: 90f3 01bf 1fb6 9fbe 15fa 5c3f 24d3 a4be
00000270: ed28 0d3e 528e 03bf 6ed9 7d3d 7271 fb3e
00000280: 0406 f1be 64bc 39bf 052b 3d3f 3168 0d3f
00000290: 7030 54bf dc89 3bbf 7251 0b3f 8b2f cfbe
000002a0: fbec bd3e 2730 0cbf 1e6d 38bf 93b0 1bbf
000002b0: 51a9 df3d 20a9 0f3f 064a 493f 6fd1 d4be
000002c0: 484f 90be 1d76 c33e bdac 5c3f 0566 233f
000002d0: 9bb2 fd3e dba8 8bbe f2b9 503e a035 debe
000002e0: 27c0 223d 7831 e0be ea66 0e3f 29b2 a93e
000002f0: 52e7 d93e 2091 963e eacd b63e e906 ecbe
00000300: e4e4 0abf 7112 cabe 9492 e8be 9c7c 853e
00000310: 9a5e d53e 7905 8abe 8d1c a33f 5e16 103e
00000320: e5ff 95bd f93a 5abe 98dc eabe f3e6 dcbc
00000330: 82ee 96ba 4211 e7be 8868 533f 00b6 7b3e
00000340: 345f 12bf 9aec 0abe 0e28 0ebf 0f1a 63be
00000350: 1b03 c23e f3b5 863e 7609 713f b7f4 023e
00000360: e7e6 bdbe cc86 f93d 2e99 683f b290 1a3f
00000370: db76 cebb 2ca5 b43d 1a6e f0be 2734 f33e
00000380: 1b61 8d3e e667 a03e 40a0 b9be ddb5 13bf
00000390: 324d abbd d5b1 1bbf 8039 5bbe ec6e 88be
000003a0: 4b99 fa3e 9133 d3bd 8ce1 463f fda6 8f3e
000003b0: 3f5d 2f3f 4f3f 06bf e3f3 f9be b042 48be
000003c0: b550 3b3f 13d7 0dbe e850 423f fd1f 1f3d
000003d0: 6680 383f ff48 43be dfb8 263f ac6d 37be
000003e0: 1777 1abf 2c2c 9c3e 5925 343f 8043 aa3e
000003f0: bedf ddbe 5689 03bf c770 2f3f 6ad1 d03e

upsample.bias f4 [6272]
-0.1679312 -0.67878014 -0.09062655 -0.8444789 -0.56972665 -0.8553352 0.059742592 -0.45378458
0.4768543 -0.889056 0.31773144 0.4386741 -0.052628182 -0.054949123 -0.25335908 0.6304813
-0.56056416 0.29176307 -0.64704996 -0.23680328 -0.43431294 0.10912117 -0.16660146 0.04780452
-0.3551932 -0.27596706 0.49088037 -0.2827504 0.19080333 0.53104067 -0.5234368 -0.26322815
-0.046965305 0.5390954 -0.1597821 -0.2880572 0.020262064 -0.5923135 -0.031190615 0.68310124
-0.3544945 -0.1507148 -0.40755498 -0.2943918 -0.107543305 -0.46319842 0.44062516 -0.19309178
-0.5439183 -0.2507318 0.5991186 -0.4054571 0.17899255 0.56020087 -0.28007233 -0.6429368
0.074264474 -0.5284439 -0.95631725 -0.61741376 0.1359726 0.18555182 0.35329354 -0.042643845
-0.75772715 0.29112807 0.4038522 -0.35099706 0.019465985 -0.2912466 -0.29811704 0.0037384122
-0.5700127 -0.18875557 -0.7223324 -0.9717296 0.21826749 0.32077107 -0.09602421 0.27227226
-0.19613989 0.40571892 -0.49825156 0.23973809 -0.5457592 -0.40975797 -0.4340267 -0.49255425
-0.43825236 -0.6595395 -0.72635365 0.49493998 -0.8284297 -0.31950176 0.7754315 -0.7236898
-0.3096297 0.15218842 0.7156369 -0.00096736307 -0.04774141 0.13803302 0.44220218 -0.4594397
-0.34500983 -0.2102945 0.7806708 -0.57142955 -0.11573195 -0.32883042 -0.49077398 0.3011935
0.3616579 0.16563664 -0.3331781 0.61406016 -0.6335138 0.020137114 -0.15309668 0.3975572
0.298756 -0.3586153 -0.46957758 0.24835636 -0.44417226 0.037222967 0.13069376 -0.4742556
-0.28325373 0.27936894 -0.5626198 -0.28007215 -0.112283155 0.2210306 -0.23032688 -0.4790619
0.15788254 0.19627482 -0.47737488 -0.11151166 0.09107268 -0.29901347 0.0074582957 0.12895262
0.26617506 0.24053364 0.5347089 0.30502188 -1.1833181 -0.19860323 0.37575474 0.090010114
-0.18474218 0.042986505 -0.33179504 -0.6469768 0.068153165 -0.2981593 0.22976421 -0.032664843
-0.018246176 -0.05150658 -0.19887905 0.08414686 -0.7249997 0.17261054 0.5908544 -0.5173113
0.5918031 0.48296005 0.35351047 -0.6593352 0.492736 0.24054545 -0.33023378 0.2669455
-0.1230863 0.45407322 0.2644966 -0.2848947 -0.2998376 0.35548705 -0.17840742 -0.4661717
-0.2549272 0.3116876 0.19175512 0.19179937 -1.056327 -0.36357358 -0.48209813 0.22004963
-0.9774318 -0.08548079 -0.30173504 0.1770868 0.26557392 -0.044187993 0.3046444 0.12131343
0.21263722 0.2679514 0.47733322 -0.3692241 -0.16851749 -0.45471892 0.10277888 -0.14120111
-0.5950848 0.3718818 0.63942665 0.24916296 0.56969815 0.09252961 0.22032194 -0.0056640306
-0.8234402 0.24833274 0.6056222 0.41368583 0.6391153 0.23332047 0.0018064753 0.40621242
-0.72716856 0.47981706 0.21641366 -0.26731262 -0.33017454 -0.73641884 0.47163776 -0.6222912
0.10973526 0.36817494 0.2198598 -0.38553494 0.041132323 -0.5434574 0.6383787 -0.3129987
-0.2622974 0.43789372 0.47811228 -0.57832414 0.5223453 -0.38472798 0.5880483 0.55400896
0.27345937 0.5268511 0.25197855 0.6800412 -0.2967702 -0.11676056 -0.57835066 -0.5755285
00000000: 28f6 2bbe 89c4 2dbf 6a9a b9bd c52f 58bf
00000010: 9bd9 11bf 3ff7 5abf a6b4 743d 7456 e8be
00000020: 3f26 f43e 2d99 63bf b2ad a23e e499 e03e
00000030: a690 57bd 5512 61bd 48b8 81be 3967 213f
00000040: 2281 0fbf f861 953e 11a5 25bf 8f7c 72be
00000050: 445e debe ec7a df3d 9399 2abe acce 433d
00000060: e2db b5be 8e4b 8dbe ac54 fb3e a9c4 90be
00000070: f361 433e 48f2 073f f4ff 05bf d7c5 86be
00000080: b15e 40bd 2802 0a3f eb9d 23be 3c7c 93be
00000090: a1fc a53c dca1 17bf 7683 ffbc b9df 2e3f
000000a0: 4e80 b5be fb54 1abe 0cab d0be 86ba 96be
000000b0: aa3f dcbd 5828 edbe 9f99 e13e dab9 45be
000000c0: 3b3e 0bbf eb5f 80be d65f 193f 1398 cfbe
000000d0: d349 373e 5369 0f3f a465 8fbe 8297 24bf
000000e0: f917 983d 1948 07bf 35d1 74bf d40e 1ebf
000000f0: 673c 0b3e 4c01 3e3e e4e2 b43e 50ab 2ebd
00000100: 68fa 41bf bd0e 953e b7c5 ce3e e3b5 b3be
00000110: 2177 9f3c 461e 95be cca2 98be 2600 753b
00000120: 5aec 11bf 2449 41be c7ea 38bf 45c3 78bf
00000130: 8381 5f3e 1b3c a43e 57a8 c4bd 4567 8b3e
00000140: e5d8 48be 64ba cf3e d41a ffbe e77d 753e
00000150: e0b6 0bbf cccb d1be bf38 debe 1230 fcbe
00000160: 9d62 e0be 95d7 28bf 50f2 39bf c668 fd3e
00000170: f813 54bf bc95 a3be ae82 463f bc43 39bf
00000180: c987 9ebe 48d7 1b3e fb33 373f a396 7dba
00000190: 7f8c 43bd 8758 0d3e 5368 e23e ae3b ebbe
000001a0: 21a5 b0be 7157 57be 0bda 473f 3549 12bf
000001b0: df04 edbd 765c a8be ba46 fbbe 0936 9a3e
000001c0: 392b b93e a79c 293e 5296 aabe 0c33 1d3f
000001d0: f62d 22bf 97f6 a43c 60c5 1cbe 9e8c cb3e
000001e0: 8cf6 983e 6d9c b7be 796c f0be 2151 7e3e
000001f0: 8c6a e3be 1c77 183d 96d4 053e a1d1 f2be
00000200: a206 91be 7209 8f3e da07 10bf 9e65 8fbe
00000210: b6f4 e5bd d855 623e cfda 6bbe 9a47 f5be
00000220: f6ab 213e 44fc 483e 7b6a f4be 3a60 e4bd
00000230: 5084 ba3d 4b18 99be b864 f43b 280c 043e
00000240: 1948 883e 734e 763e afe2 083f d42b 9c3e
00000250: f876 97bf a55e 4bbe ed62 c03e 3957 b83d
00000260: 0e2d 3dbe 9e12 303d 0ae1 a9be 46a0 25bf
00000270: e393 8b3d 56a8 98be 4f47 6b3e 92cb 05bd
00000280: 0179 95bc 90f8 52bd f3a6 4bbe 3055 ac3d
00000290: 9599 39bf d1c0 303e 3c42 173f 836e 04bf
000002a0: 6880 173f 8a46 f73e 53ff b43e 31ca 28bf
000002b0: e547 fc3e 8c51 763e 6714 a9be 15ad 883e
000002c0: ac14 fcbd 497c e83e 196c 873e b8dd 91be
000002d0: 5084 99be 6602 b63e 6fb0 36be 0fae eebe
000002e0: d185 82be 8495 9f3e 745b 443e 0e67 443e
000002f0: b935 87bf 5126 babe 91d5 f6be b154 613e
00000300: f838 7abf 8d10 afbd 047d 9abe 3e56 353e
00000310: 4ef9 873e 78fe 34bd 5afa 9b3e 2d73 f83d
00000320: 92bd 593e ed30 893e 0565 f43e f10a bdbe
00000330: d98f 2cbe ebd0 e8be bc7d d23d 0697 10be
00000340: 7a57 18bf 4b67 be3e 77b1 233f 9324 7f3e
00000350: bdd7 113f 2a80 bd3d 139c 613e 5599 b9bb
00000360: facc 52bf f04a 7e3e 0e0a 1b3f a1ce d33e
00000370: 0f9d 233f 90eb 6e3e 41c7 ec3a 13fb cf3e
00000380: b827 3abf 95aa f53e 8b9b 5d3e 33dd 88be
00000390: a30c a9be f285 3cbf 817a f13e 7a4e 1fbf
000003a0: e1bc e03d 6d81 bc3e ed22 613e d664 c5be
000003b0: 5e7a 283d 0620 0bbf c96c 233f 5e41 a0be
000003c0: d84b 86be 9b33 e03e 22cb f43e 0d0d 14bf
000003d0: 6cb8 053f 11fb c4be 558a 163f 88d3 0d3f
000003e0: de02 8c3e b7df 063f 5503 813e 2e17 2e3f
000003f0: 43f2 97be 2920 efbd ca0e 14bf d655 13bf

net.0.weight f4 [128, 64, 4, 4]
-0.012635464 0.003731098 -0.050604127 0.042930268 -0.012974638 -0.025452994 -0.029999038 0.07155185
-0.08993998 -0.016992966 -0.005591262 0.016349277 -0.10933769 0.04865007 0.08466511 -0.02707036
-0.023647085 0.08052372 -0.123098105 -0.064770855 -0.061810546 -0.017037692 0.04045967 -0.026440466
0.06520902 0.15043826 0.09551565 0.12474551 0.070978716 0.06841947 -0.08417107 -0.02532679
-0.047940653 -0.020724138 -0.0301761 0.011544045 0.07266446 0.08466124 -0.06286396 -0.22920538
-0.14594582 -0.13132411 -0.10230446 -0.0360219 -0.015648384 -0.09912206 -0.2230751 -0.08409502
-0.038446575 0.020784812 0.05597024 -0.01754323 0.04095501 -0.06332382 0.009087127 0.043980487
-0.010242776 -0.028182914 -0.025470767 0.023119107 0.02777661 -0.009842539 0.044725977 0.0075431843
-0.010790641 -0.017011657 0.0741576 0.13476692 0.031234989 0.04784087 -0.05178533 0.07294686
0.071208395 -0.029407205 0.0034644774 0.07198466 -0.03951297 -0.3144493 -0.0047421553 0.08922661
-0.011584575 0.060439 0.049082134 -0.029563593 -0.017208666 0.080884665 0.047140528 -0.12214611
0.058929786 0.115757026 -0.055348054 0.05993527 -0.0016127675 0.10373605 0.011536215 0.03284126
-0.18781695 0.11286963 -0.05878975 -0.018049166 -0.07994793 0.17744996 -0.026678653 0.007902093
-0.01946028 0.05477325 0.053987894 0.072378024 0.081666924 0.07580887 -0.03986085 0.09733402
-0.056131657 -0.052926663 -0.110087134 0.047996283 0.06386984 0.01963461 -0.013539367 -0.15077703
0.05468698 0.1454741 -0.11181298 -0.05602539 0.013447472 0.19841279 -0.13473144 -0.07833369
-0.1239296 -0.0073988703 -0.082969375 -0.04962456 0.02206202 0.026143067 0.021742238 -0.016990384
0.049844768 0.021453353 0.04790121 -0.010668549 0.09885077 0.021782389 0.040163465 -0.012205028
-0.025707053 -0.13806897 0.03459859 0.040944107 -0.034820076 -0.018237513 -0.009250148 0.07567927
-0.08171836 -0.02499558 0.021378987 0.061288994 -0.04284963 0.02292873 0.020165065 0.044187576
-0.016055288 0.032819353 0.01661049 0.10548603 0.044637 -0.008651461 0.015753109 0.01860752
-0.01449948 -0.026519828 -0.09796064 0.05430784 -0.15636005 0.038603663 -0.008638649 -0.006993459
0.044357035 0.029765904 -0.008481797 -0.0028555745 -0.09351589 -0.029088935 0.032286134 0.023903858
-0.018687636 -0.038698092 -0.040404372 -0.010282046 -0.044872593 -0.12968981 -0.022702947 0.015970733
0.050191548 0.0010936002 0.008947289 0.075456984 0.053265255 0.04233553 0.028183682 0.0034989151
-0.09532582 -0.04013084 0.043714773 0.08987549 0.05137757 -0.013226718 -0.0916113 0.046768047
0.04387075 0.06371248 -0.08178374 -0.0035110472 -0.025043745 -0.041148238 -0.048503764 0.0024100314
0.07375805 -0.026010394 -0.03904186 -0.06476268 0.10388103 -0.037461933 -0.021407312 -0.024713317
-0.09185694 0.064855926 0.06643288 -0.013969243 0.038590174 0.156619 0.11922431 0.07842549
-0.06361884 0.024008729 0.046171427 0.036181208 -0.06065158 0.14629553 0.04890702 -0.09861626
0.006936887 0.005240041 0.071086995 0.085258566 0.01541467 -0.044117488 -0.012812572 0.02275921
0.031573582 0.06485544 0.049364902 -0.08255179 -0.119861014 -0.06261703 0.07467472 0.021489521
00000000: fa04 4fbc 7085 743b 4646 4fbd a6d7 2f3d
00000010: 9393 54bc cc82 d0bc 8bc0 f5bc c789 923d
00000020: 7432 b8bd d534 8bbc e836 b7bb ebee 853c
00000030: 70ec dfbd 4c45 473d e764 ad3d a9c2 ddbc
00000040: 88b7 c1bc 9fe9 a43d dc1a fcbd 95a6 84bd
00000050: 0e2d 7dbd a192 8bbc 0ab9 253d ad99 d8bc
00000060: 4f8c 853d 7d0c 1a3e b69d c33d 937a ff3d
00000070: 4a5d 913d 821f 8c3d e261 acbd 217a cfbc
00000080: 6b5d 44bd abc5 a9bc de33 f7bc 3c23 3d3c
00000090: 1bd1 943d df62 ad3d d2be 80bd d1b4 6abe
000000a0: d272 15be d479 06be 0085 d1bd b38b 13bd
000000b0: 0a31 80bc 8200 cbbd cd6d 64be 033a acbd
000000c0: 287a 1dbd e944 aa3c 0d41 653d d2b6 8fbc
000000d0: 71c0 273d ebaf 81bd 2ce2 143c e224 343d
000000e0: 51d1 27bc dbdf e6bc 12a8 d0bc 4864 bd3c
000000f0: c68b e33c 9a42 21bc 9632 373d d12c f73b
00000100: 3bcb 30bc 085c 8bbc f1df 973d 5700 0a3e
00000110: 85e0 ff3c caf4 433d db1c 54bd 2a65 953d
00000120: b5d5 913d 61e7 f0bc 490c 633b b26c 933d
00000130: 5ad8 21bd 80ff a0be 1564 9bbb 71bc b63d
00000140: 3bcd 3dbc e38e 773d 590a 493d 592f f2bc
00000150: 30f9 8cbc dca6 a53d 6d16 413d bd27 fabd
00000160: 5c60 713d 0512 ed3d a4b4 62bd b07e 753d
00000170: 7f63 d3ba 9173 d43d 6502 3d3c 8f84 063d
00000180: 1653 40be 3128 e73d 85cd 70bd d8db 93bc
00000190: bebb a3bd 71b5 353e 318d dabc c877 013c
000001a0: 2a6b 9fbc ea59 603d 6922 5d3d ee3a 943d
000001b0: fd40 a73d ae41 9b3d 2145 23bd 0f57 c73d
000001c0: 4fea 65bd a1c9 58bd 5d75 e1bd c097 443d
000001d0: 31ce 823d c3d8 a03c 39d4 5dbc 4b65 1abe
000001e0: 74ff 5f3d 2af7 143e 34fe e4bd e17a 65bd
000001f0: c952 5c3c b92c 4b3e 0af7 09be 6a6d a0bd
00000200: cdce fdbd 3972 f2bb d9eb a9bd 1f43 4bbd
00000210: 69bb b43c fc29 d63c c71c b23c 6b2f 8bbc
00000220: 072a 4c3d f1be af3c 0f34 443d 23cb 2ebc
00000230: 4672 ca3d fb70 b23c 7282 243d 99f7 47bc
00000240: 9997 d2bc f461 0dbe 40b7 0d3d 02b5 273d
00000250: 7f9f 0ebd d666 95bc ef8d 17bc bcfd 9a3d
00000260: f55b a7bd 88c3 ccbc fc22 af3c 2b0a 7b3d
00000270: 1883 2fbd 08d5 bb3c 3531 a53c 08fe 343d
00000280: 6186 83bc 966d 063d b912 883c 0f09 d83d
00000290: 49d5 363d dcbe 0dbc aa0c 813c cc6e 983c
000002a0: 3a8f 6dbc 1c40 d9bc 979f c8bd e671 5e3d
000002b0: d91c 20be e01e 1e3d 1f89 0dbc 6329 e5bb
000002c0: b9af 353d a0d7 f33c 3cf7 0abc 9724 3bbb
000002d0: 4285 bfbd eb4b eebc 773e 043d 06d2 c33c
000002e0: d016 99bc e481 1ebd 0e7f 25bd 0776 28bc
000002f0: 53cc 37bd 68cd 04be 88fb b9bc 0ed5 823c
00000300: a795 4d3d 2257 8f3a a697 123c 3189 9a3d
00000310: ab2c 5a3d 0568 2d3d 77e1 e63c 0e4e 653b
00000320: 2f3a c3bd 3c60 24bd 430e 333d a410 b83d
00000330: 4971 523d e0b4 58bc b59e bbbd da8f 3f3d
00000340: d1b1 333d b07b 823d 3c7e a7bd 9919 66bb
00000350: 8a28 cdbc 0e8b 28bd e2ab 46bd 9ef1 1d3b
00000360: 760e 973d c013 d5bc 5bea 1fbd 4ca2 84bd
00000370: 94bf d43d af71 19bd 635e afbc 9573 cabc
00000380: 7e1f bcbd 2fd3 843d f60d 883d 40df 64bc
00000390: bb10 1e3d bb60 203e e02b f43d 8b9d a03d
000003a0: 984a 82bd f4ad c43c 401e 3d3d bf32 143d
000003b0: cb6d 78bd 7fce 153e ba52 483d 52f7 c9bd
000003c0: d34e e33b a6b4 ab3b 0f96 913d 0b9c ae3d
000003d0: d08d 7c3c 8ab4 34bd d2eb 51bc 8671 ba3c
000003e0: 4d53 013d eed2 843d da32 4a3d ea10 a9bd
000003f0: b179 f5bd 5c3d 80bd 0fef 983d cb0a b03c

net.0.bias f4 [64]
-0.0014053733 0.17309648 0.08993974 0.0024850438 0.16108873 0.14578784 0.13966845 0.21027203
0.009242772 -0.036838915 -0.0002818946 -0.018231671 0.0103962775 -0.017049547 0.053260267 -0.012505426
0.046855688 0.083898 -0.02337364 0.0021285873 0.045845184 -0.03836411 0.017372992 0.07070037
0.10579773 -0.0028792291 -0.023691151 -0.027473519 -0.005359189 0.015071204 0.2507212 -0.0025979562
0.027856823 0.06517515 0.05269483 0.054885786 -0.0123091815 0.049395513 0.047740083 -0.011590792
-0.00928507 -0.056544494 0.18989746 -0.028218972 0.10518769 0.09072235 0.13407993 0.021792714
-0.006125055 -0.017196279 0.017468533 0.053089403 -0.025943631 0.058065273 0.03165631 -0.015133558
-0.028600238 0.035784297 -0.0104405265 0.040210094 0.049690787 0.045758247 0.0038151601 0.23629354
00000000: 8134 b8ba 3440 313e 5432 b83d 1edc 223b
00000010: 72f4 243e 6849 153e 3f05 0f3e 8d51 573e
00000020: ff6e 173c 67e4 16bd 41cb 93b9 965a 95bc
00000030: 2655 2a3c 7eab 8bbc 7027 5a3d 8fe3 4cbc
00000040: c0eb 3f3d b7d2 ab3d 137a bfbc c57f 0b3b
00000050: 29c8 3b3d af23 1dbd ce51 8e3c 5bcb 903d
00000060: 7bac d83d 73b1 3cbb f213 c2bc 2510 e1bc
00000070: 239c afbb 36ed 763c 875e 803e 7942 2abb
00000080: fe33 e43c 8d7a 853d 89d6 573d ebcf 603d
00000090: 73ac 49bc f352 4a3d 1b8b 433d 4ee7 3dbc
000000a0: 6820 18bc 339b 67bd 7b74 423e 792b e7bc
000000b0: a56c d73d a4cc b93d 404c 093e a286 b23c
000000c0: afb4 c8bb 36df 8cbc 2b1a 8f3c 4674 593d
000000d0: bd87 d4bc dad5 6d3d 0caa 013d bef2 77bc
000000e0: 0c4b eabc 8e92 123d be0e 2bbc 57b3 243d
000000f0: 9188 4b3d 006d 3b3d c407 7a3b eff6 713e

net.2.weight f4 [64, 64, 4, 4]
0.13888034 0.032958306 0.07959711 0.11973093 0.16591078 0.18671909 0.19661283 0.12278611
0.20021968 0.04848104 0.11294593 0.18616553 0.18052164 0.071922444 0.1195644 0.11131661
-0.0854728 0.23978293 0.004198267 0.017220136 -0.16373646 -0.17677364 -0.011110288 -0.047984812
-0.18923782 -0.103176855 -0.18530256 -0.20144996 -0.11856466 -0.0049876384 0.057433218 0.0082044015
0.04547086 0.07917387 0.06166181 -0.017323382 0.1385522 0.11217771 0.24234402 0.14588638
0.37051615 0.033119787 0.35504586 0.074623115 0.055156406 0.12136342 0.16960031 0.1209366
0.07099984 0.045351967 -0.037964612 0.04848505 0.044076595 0.21552137 0.0041690757 0.19847143
0.07543676 0.16967455 0.10823443 0.1997013 0.17142001 0.14846064 0.17415561 -0.015652856
0.15000683 0.10760281 0.12000758 0.08722066 0.05759658 0.08985182 0.13003024 0.092165574
0.1723683 -0.011717967 0.062752545 0.045217264 0.03580832 0.10824504 0.024740689 0.06590254
0.030522265 0.085412785 0.13231242 0.12687902 0.108181246 0.05622983 -0.0062953588 0.01554495
0.05459266 -0.039987177 0.029555712 0.052512314 0.17214915 0.0915284 0.07199742 0.0892074
-0.14676403 0.12690905 0.08562108 0.16337073 0.0755324 0.34873134 0.23509258 0.2865139
0.075527534 0.3263832 0.26788384 0.14920689 0.033527065 0.20006935 0.2303052 0.17672554
0.0149385445 0.074967235 0.033982877 0.026103007 0.060432773 0.082443394 0.056767516 0.044675007
0.07760634 0.038098175 0.27857035 0.088771336 0.081094846 0.049355954 0.07744729 0.119678825
0.021296397 -0.014070847 0.0433411 0.05142596 0.10982169 0.07034736 0.15176915 0.028817588
0.08243734 0.12156833 0.07347077 0.024554422 -0.03621175 0.066946946 0.034545157 0.033243384
-0.106643386 0.14388452 -0.0072345193 0.14285178 0.06240618 0.18888032 0.17766152 0.1710446
0.2044832 0.10051597 0.14285547 0.0439064 0.06695204 0.0041613653 0.012322574 0.110298306
0.019139236 -0.2694292 -0.10964345 -0.04424902 -0.2193228 0.06584827 0.15997104 -0.006845303
0.03173857 -0.03187269 -0.051539306 -0.19815323 0.066051 -0.097903065 -0.011981938 -0.058686197
-0.23657715 -0.12804782 -0.27235958 -0.055936575 -0.37470978 -0.013281382 -0.08146968 -0.35140216
-0.22175474 -0.19224933 -0.29698333 -0.04039116 -0.12186063 -0.29252663 -0.20674442 -0.0920663
0.05771141 0.20795816 0.15114361 0.1255106 0.20355384 -0.0035959014 0.110637896 0.11107889
0.184151 0.2284219 0.13848245 0.009284092 0.021952232 0.09648319 0.13031502 0.047466133
-0.05077782 -0.068711825 -0.028581742 -0.23063266 -0.06745072 0.02932424 0.060350135 -0.09342777
-0.0023640443 0.013970986 0.0011696818 0.045187786 0.17433536 0.23265538 0.068113014 0.1107265
-0.074801855 -0.016424935 -0.0056133023 0.032364324 0.05824139 0.009873841 0.04308553 -0.021555917
-0.11780646 -0.21234052 -0.14056279 -0.1401619 -0.11136044 -0.24118178 -0.12753384 -0.06472875
0.2137998 0.034110922 0.13531171 0.067291066 0.068805344 0.18337572 0.2598822 0.1393062
0.0770824 0.06985943 0.066166714 0.04716351 0.105868116 0.1068636 -0.0008584125 0.04885755
00000000: a636 0e3e 4aff 063d cf03 a33d 7d35 f53d
00000010: 84e4 293e 4a33 3f3e e054 493e 4977 fb3d
00000020: 6306 4d3e 0e94 463d 3250 e73d 2da2 3e3e
00000030: aada 383e 134c 933d 2ede f43d f6f9 e33d
00000040: 5d0c afbd a889 753e 9e91 893b 3e11 8d3c
00000050: 88aa 27be 2604 35be ed07 36bc b98b 44bd
00000060: 8fc7 41be 634e d3bd f4bf 3dbe e648 4ebe
00000070: 07d2 f2bd 586f a3bb 183f 6b3d c16b 063c
00000080: a73f 3a3d e925 a23d 1891 7c3d c4e9 8dbc
00000090: a1e0 0d3e 6dbd e53d 0829 783e 3d63 153e
000000a0: 4bb4 bd3e 9da8 073d 92c8 b53e 01d4 983d
000000b0: afeb 613d 628d f83d b4ab 2d3e 9cad f73d
000000c0: 5d68 913d fcc2 393d c880 1bbd 4398 463d
000000d0: a989 343d a2b1 5c3e be9c 883b 183c 4b3e
000000e0: 977e 9a3d 2abf 2d3e 03aa dd3d 7f7e 4c3e
000000f0: ba88 2f3e 1106 183e d955 323e 6b3a 80bc
00000100: 649b 193e dd5e dc3d 89c6 f53d bfa0 b23d
00000110: 64ea 6b3d 3b04 b83d a626 053e 4ec1 bc3d
00000120: 5181 303e b7fc 3fbc 6884 803d bd35 393d
00000130: bfab 123d 93af dd3d fcac ca3c e9f7 863d
00000140: d409 fa3c e6ec ae3d e87c 073e 93ec 013e
00000150: 218e dd3d 4051 663d 4c49 cebb 3fb0 7e3c
00000160: 8e9c 5f3d 98c9 23bd d21e f23c 2717 573d
00000170: de47 303e 3e73 bb3d 6273 933d 5fb2 b63d
00000180: 4f49 16be 72f4 013e 1b5a af3d a84a 273e
00000190: bbb0 9a3d ea8c b23e 1cbc 703e f3b1 923e
000001a0: 2eae 9a3d b31b a73e 1228 893e b1c9 183e
000001b0: ad53 093d fbde 4c3e 20d5 6b3e 8af7 343e
000001c0: ccc0 743c 6c88 993d a131 0b3d f9d5 d53c
000001d0: 5b88 773d 15d8 a83d 0e85 683d 24fd 363d
000001e0: 13f0 9e3d d50c 1c3d c6a0 8e3e bfcd b53d
000001f0: 0e15 a63d 7829 4a3d af9c 9e3d 2c1a f53d
00000200: c875 ae3c 6989 66bc 7086 313d 07a4 523d
00000210: 32ea e03d 4712 903d 5f69 1b3e dd12 ec3c
00000220: e8d4 a83d d1f8 f83d d877 963d 5b26 c93c
00000230: c652 14bd 7b1b 893d 397f 0d3d 372a 083d
00000240: d967 dabd 7756 133e 8c0f edbb bd47 123e
00000250: 9f9d 7f3d d869 413e e7ec 353e 5126 2f3e
00000260: 0b64 513e 51db cd3d b448 123e 33d7 333d
00000270: 271e 893d 105c 883b 9fe4 493c 14e4 e13d
00000280: e3c9 9c3c a0f2 89be bf8c e0bd 763e 35bd
00000290: 2896 60be 75db 863d 73cf 233e 904e e0bb
000002a0: 4e00 023d f08c 02bd e11a 53bd aee8 4abe
000002b0: bf45 873d 6781 c8bd e44f 44bc f060 70bd
000002c0: 4841 72be f81e 03be b772 8bbe c01d 65bd
000002d0: f6d9 bfbe 279a 59bc 93d9 a6bd fcea b3be
000002e0: ad13 63be 02dd 44be 330e 98be 3371 25bd
000002f0: 1192 f9bd 0dc6 95be cfb4 53be 428d bcbd
00000300: cd62 6c3d fcf2 543e 64c5 1a3e da85 003e
00000310: 6b70 503e 37a9 6bbb 1f96 e23d 547d e33d
00000320: 1492 3c3e 6ee7 693e 58ce 0d3e 4e1c 183c
00000330: 2bd5 b33c fb98 c53d 4d71 053e d96b 423d
00000340: 67fc 4fbd c9b8 8cbd 4224 eabc f82a 6cbe
00000350: 9a23 8abd 6339 f03c b431 773d 0f57 bfbd
00000360: 15ee 1abb 90e6 643c 0250 993a d416 393d
00000370: f884 323e 363d 6e3e d67e 8b3d 93c4 e23d
00000380: b731 99bd 968d 86bc cbef b7bb 7490 043d
00000390: 868e 6e3d e4c5 213c 747a 303d 0996 b0bc
000003a0: 8344 f1bd cb6f 59be b1ef 0fbe 9a86 0fbe
000003b0: f110 e4bd 5bf8 76be 3b98 02be 8290 84bd
000003c0: 56ee 5a3e e5b7 0b3d 278f 0a3e e6cf 893d
000003d0: d1e9 8c3d d8c6 3b3e 480f 853e 49a6 0e3e
000003e0: 61dd 9d3d 7612 8f3d 6a82 873d 862e 413d
000003f0: 62d1 d83d 4edb da3d 1607 61ba db1e 483d

net.2.bias f4 [64]
-0.012711794 0.09942637 -0.02939916 -0.00299616 -0.009893129 0.0015900718 -0.12233124 -0.07047808
0.011416458 -0.01714076 0.11024827 0.1343516 -0.0021742191 0.022787593 0.14368014 -0.00996718
-0.037167594 0.05437056 0.14417477 0.14284232 0.10240133 0.005755138 0.065794654 0.063178755
8.566653e-05 0.029052066 -0.016926216 -0.026368506 -0.032549147 0.11297443 0.13250017 0.0509311
0.0032204424 0.11068113 0.068027414 -0.026604293 0.061133362 -0.035567194 -0.072721645 0.055612963
0.08578174 0.05626317 0.06889935 0.0592245 0.055481795 0.060886487 -0.015866432 -0.035315413
0.05099718 0.072693065 0.08211803 -0.006575082 0.0387819 0.10938238 0.03267034 -0.026684156
0.09347651 -0.011648037 0.113172464 -0.029749775 0.050182227 0.19004887 0.26298365 0.07207915
00000000: 2145 50bc 0da0 cb3d 82d6 f0bc 395b 44bb
00000010: ca16 22bc f569 d03a cd88 fabd d056 90bd
00000020: 180c 3b3c c76a 8cbc d8c9 e13d 7793 093e
00000030: 587d 0ebb 0cad ba3c e320 133e 624d 23bc
00000040: 0c3d 18bd aab3 5e3d 8da2 133e 4245 123e
00000050: cab7 d13d 9995 bc3b 59bf 863d dd63 813d
00000060: dea7 b338 99fe ed3c d9a8 8abc c402 d8bc
00000070: 4152 05bd 235f e73d 20ae 073e 219d 503d
00000080: 0f0e 533b caac e23d f551 8b3d 3ff1 d9bc
00000090: fa66 7a3d e8ae 11bd 16ef 94bd 6bca 633d
000000a0: 56ae af3d 3674 663d 1a1b 8d3d 6495 723d
000000b0: e140 633d 1c64 793d 52fa 81bc e5a6 10bd
000000c0: 6be2 503d 1ae0 943d 7f2d a83d c973 d7bb
000000d0: c5d9 1e3d df03 e03d 56d1 053d bb98 dabc
000000e0: 9d70 bf3d 68d7 3ebc f7c6 e73d cdb5 f3bc
000000f0: e18b 4d3d 2c9c 423e cba5 863e 3c9e 933d

net.4.weight f4 [64, 1, 4, 4]
-0.38368946 -0.059156656 0.17253013 -0.15742701 -0.21044648 -0.08226076 -0.008883349 0.08612978
-0.041761424 0.101613805 0.23753522 -0.19300392 -0.2518534 0.087324575 0.3270653 0.12664315
-0.28925866 0.16796243 -0.18116271 0.19459009 0.101957195 0.23456275 -0.025890226 0.11625972
0.13501792 -0.11540581 0.025417017 -0.15018117 -0.23356543 -0.023250615 -0.14775157 0.07822824
-0.325698 -0.04976531 -0.1581727 -0.12588933 -0.2718662 0.2446536 -0.18219908 -0.07778247
-0.056216713 0.3831439 0.3438667 0.07244192 0.20495278 0.048903584 -0.026728109 0.18800035
0.1741939 0.032106694 0.33340487 0.09325757 0.41210186 0.23890446 0.20521572 0.17539561
0.0870624 -0.13355209 -0.11292414 -0.25622675 0.020698193 -0.30728176 -0.460132 -0.18496263
-0.054930523 -0.0148578305 -0.06502477 0.0068083075 -0.05047691 0.20763808 0.11708604 0.27514625
-0.13579065 -0.16230413 -0.29527345 -0.22518976 0.17129202 0.2223343 -0.06614459 -0.025616579
0.30873904 -0.022598905 0.15244761 0.15514703 0.17216922 -0.20575346 -0.30633053 -0.115432665
0.017678807 0.006029725 -0.20958576 -0.17643824 0.09443259 0.09341813 0.15722114 0.11969379
-0.42082167 -0.2556235 0.15195762 -0.09454992 -0.017439684 0.25327918 0.3283608 0.30345565
-0.09547531 0.14893173 0.4210141 0.21132012 -0.32486224 -0.20603639 0.31499648 0.13741814
-0.25612095 -0.6713797 -0.555324 -0.10202188 -0.16560748 -0.8754479 -0.6655391 -0.49651802
-0.26890308 -0.803703 -0.5287942 -0.18744884 -0.3156158 -0.7677351 -0.4694269 -0.006003383
-0.18278308 0.08242653 -0.23707606 -0.17186663 -0.06130421 -0.23795427 -0.19644022 -0.36027902
-0.3399383 -0.39559004 -0.6572207 -0.4696959 0.03183468 -0.029248865 -0.4457948 -0.022548832
0.2340545 0.15605299 0.34934187 0.3156761 -0.19694352 0.06742109 0.09655011 -0.097265296
-0.29375127 0.23150976 0.11308314 -0.33085465 -0.17653072 0.038150802 -0.18260428 -0.20030561
0.028675871 0.31752136 -0.1682085 0.07519071 -0.05517633 0.3483194 -0.13500193 -0.123914346
-0.13195553 0.20685798 0.022447117 -0.23154737 0.0808537 0.3224883 -0.21354301 -0.1256468
0.30044606 0.29741013 0.28418946 0.27274415 0.081839636 0.059688844 -0.041323386 0.08070406
0.20193662 0.2736913 0.11208439 0.26762405 0.39066845 0.3552029 0.4207663 0.38668424
0.1287973 -0.14525124 0.10671358 0.08059427 0.05428672 -0.38854375 -0.32656097 0.09224994
-0.13298789 -0.20830677 -0.09676523 0.038302183 0.26701617 -0.016472483 0.030984432 0.29090992
-0.23604247 -0.01664998 -0.15271743 -0.11661243 0.05548488 -0.18957075 0.13750668 -0.10012222
0.05196288 0.2286787 0.0149410805 -0.16007695 0.25278187 -0.077464126 0.22867085 0.15485647
-0.2654683 -0.28189105 0.14823842 -0.17476407 0.053122725 0.18579924 -0.102111846 0.22283497
-0.18416366 0.08729785 0.18510544 -0.0071466924 0.08560422 0.13381557 -0.10790447 -0.076381795
0.18753278 0.3305894 0.3419413 0.12559694 -0.21719639 -0.045030564 0.18266922 0.09475558
-0.5275792 -0.72931755 -0.3620402 -0.37702152 -0.08515716 -0.5307715 -0.58124095 -0.40439877
00000000: f272 c4be 404e 72bd bdab 303e 8c34 21be
00000010: 487f 57be 5478 a8bd 778b 11bc cf64 b03d
00000020: 070e 2bbd e61a d03d 6f3c 733e d2a2 45be
00000030: eef2 80be 3ad7 b23d 1a75 a73e beae 013e
00000040: b619 94be 58fe 2b3e b882 39be a042 473e
00000050: efce d03d 3831 703e bd17 d4bc 9319 ee3d
00000060: 2342 0a3e e259 ecbd 5937 d03c 18c9 19be
00000070: c72b 6fbe 1378 bebc 304c 17be 2136 a03d
00000080: e3c1 a6be b6d6 4bbd 06f8 21be 22e9 00be
00000090: 0c32 8bbe 7986 7a3e 6592 3abe 6a4c 9fbd
000000a0: 7f43 66bd 702b c43e 4c0f b03e 6e5c 943d
000000b0: 24df 513e 204f 483d e8f4 dabc 2a83 403e
000000c0: e35f 323e 4f82 033d 0bb4 aa3e d3fd be3d
000000d0: 04ff d23e 5fa3 743e 1224 523e e89a 333e
000000e0: c64d b23d e1c1 08be c644 e7bd 2730 83be
000000f0: 428f a93c 0954 9dbe 6c96 ebbe d866 3dbe
00000100: d4fe 60bd 426e 73bc b52b 85bd 3918 df3b
00000110: e0c0 4ebd 149f 543e ceca ef3d f8df 8c3e
00000120: b40c 0bbe 0e33 26be 152e 97be 2598 66be
00000130: 2d67 2f3e 9aab 633e d176 87bd dcd9 d1bc
00000140: 0b13 9e3e 5721 b9bc 3a1b 1c3e ddde 1e3e
00000150: 214d 303e 09b1 52be 5bd7 9cbe f667 ecbd
00000160: 25d3 903c 0095 c53b a69d 56be 3aac 34be
00000170: e065 c13d 0152 bf3d 94fe 203e 0522 f53d
00000180: f075 d7be 15e1 82be c79a 1b3e 63a3 c1bd
00000190: abdd 8ebc cfad 813e e81e a83e 8a5e 9b3e
000001a0: 8f88 c3bd 8f81 183e 298f d73e 4d64 583e
000001b0: 5854 a6be 34fb 52be 3847 a13e 57b7 0c3e
000001c0: 4922 83be 8adf 2bbf b729 0ebf d9f0 d0bd
000001d0: 0295 29be 5b1d 60bf c560 2abf 9c37 febe
000001e0: aaad 89be 7bbf 4dbf 0f5f 07bf 97f2 3fbe
000001f0: 6598 a1be 4a8a 44bf b958 f0be 07b8 c4bb
00000200: 7d2b 3bbe 3ecf a83d 11c4 72be cefd 2fbe
00000210: 201a 7bbd 49aa 73be a027 49be 7e76 b8be
00000220: 650c aebe c78a cabe 9e3f 28bf fb7b f0be
00000230: 1565 023d 519b efbc 373f e4be 54b8 b8bc
00000240: fcab 6f3e 5bcc 1f3e f0dc b23e 4ca0 a13e
00000250: 90ab 49be 1214 8a3d 10bc c53d 0733 c7bd
00000260: 9166 96be e510 6d3e 2298 e73d c865 a9be
00000270: 78c4 34be 0444 1c3d 9efc 3abe ea1c 4dbe
00000280: a9e9 ea3c 2992 a23e d93e 2cbe 96fd 993d
00000290: 9300 62bd ec56 b23e f23d 0abe cec6 fdbd
000002a0: 5a1f 07be 94d2 533e 04e3 b73c c11a 6dbe
000002b0: a096 a53d 301d a53e 05ab 5abe 8ea9 00be
000002c0: 11d4 993e 2446 983e 4881 913e 1fa5 8b3e
000002d0: 8a9b a73d 4a7c 743d b642 29bd 2c48 a53d
000002e0: 79c8 4e3e 4421 8c3e 808c e53d 0506 893e
000002f0: b205 c83e 28dd b53e ae6e d73e 7afb c53e
00000300: 70e3 033e bebc 14be a68c da3d 9c0e a53d
00000310: c05b 5e3d 35ef c6be 0033 a7be 89ed bc3d
00000320: fa2d 08be 5f4e 55be d92c c6bd c0e2 1c3d
00000330: 58b6 883e 4df1 86bc 10d3 fd3c 25f2 943e
00000340: 1eb5 71be 8a65 88bc f561 1cbe 7fd2 eebd
00000350: 1d44 633d d61e 42be 8dce 0c3e e10c cdbd
00000360: 07d7 543d c02a 6a3e 6fcb 743c 36eb 23be
00000370: a06c 813e 83a5 9ebd b128 6a3e b292 1e3e
00000380: 76eb 87be 0654 90be d0cb 173e 5af5 32be
00000390: 3797 593d 2842 3e3e 0420 d1bd da2e 643e
000003a0: 6695 3cbe 37c9 b23d 488c 3d3e cd2e eabb
000003b0: 4451 af3d f306 093e 05fd dcbd 0f6e 9cbd
000003c0: 9808 403e 0443 a93e ee12 af3e 7c9c 003e
000003d0: bb68 5ebe f871 38bd a40d 3b3e 370f c23d
000003e0: 6e0f 07bf 8eb4 3abf 555d b9be f708 c1be
000003f0: e166 aebd a4e0 07bf 35cc 14bf 5b0d cfbe
