torch/pretrained/fmnist-vae-rd-discr-z.pt (torch, 299991 bytes, 5 tensors)

layers.0.weight f4 [256, 32]
00000000: cf7d 1abe 70c1 aabd 464d 563d 8d70 bf3d
00000010: ec9e dabd 1f75 0b3e 2398 8bbe 1b75 babd
00000020: 37ca 82bd 29b4 d83c 2e28 e93c 630f 4e3d
00000030: 0713 32be 2e70 8fbe 52b7 603d 4d9e 17be
00000040: 938c 87be 10c7 783e 87cb 92bd 4bfb 4bbe
00000050: ca68 5b3e cebd 3f3d a48c 963d bb7e 193e
00000060: 3334 f8bd 68d2 663e b1c8 11be 7fcf 003e
00000070: 2662 9c3e 9d23 53be d08c 033e 57c4 d23a
00000080: 8411 9b3d db20 003e e580 5d3e 60e9 4cbd
00000090: beef 03bd d1e1 dfbc adf5 86be ec46 953d
000000a0: 5ab6 3b3c 1217 3e3d 7edc 2c3d fe81 e13d
000000b0: 3464 693d cde7 0bbc b283 24be 2c4e 953d
000000c0: 06d0 453e 1d5e ea3d 5c2b 133d b42d 103d
000000d0: 87be b73c 6b3b 4d3d 6339 143b c5b7 8abe
000000e0: df42 fabd bed6 7c3e 7887 1d3b 2f6d fbbd
000000f0: 7c47 863d 5497 1b3e 95d7 61be 9e50 54bd
00000100: 9846 0cbe 3732 493b aaf0 c1bd 9853 b2bd
00000110: a534 fdbd 0f12 973d 4030 3e3d 013f 843d
00000120: d310 58bd 5500 38be 10d4 013b 7d11 f7bd
00000130: 8974 8c3d ce12 93be 5f24 353d dad4 fe3d
00000140: db47 84bb 4de6 773d 84c0 033e ccd7 883c
00000150: 3d2a 6ebd 61e0 30be dec8 a4bd 658e 943e
00000160: 1fbe eabc 58ab dd3c 02b5 6cbe 646c 9f3d
00000170: a576 343e 8293 f73d 5958 22bd e9fe 2fbd
00000180: b75b 423e 485a cb3d 8392 b53d af2b 703d
00000190: d6cf 523e d0c1 d7bd 9e8e 083e 4ee5 eebd
000001a0: dadf bebd a5e5 be3d ea02 1bba 2afa 663e
000001b0: 2ec0 7fb9 057d 983d 5e88 513e cf9a d8bd
000001c0: 249c 883d 2384 81bd a0fa cebc b21f 483d
000001d0: 01ed 42be de75 a9bc 9697 693d 2725 433e
000001e0: 5b34 c73a 762e 7e3c 999a dc3d 415c dfbd
000001f0: 1590 483e 70a8 3abe fdbe 4f3d aafd e73d
00000200: 50a1 30bd a811 ea3d ce17 84bc 2212 1b3e
00000210: 12e1 d938 51e2 76be 5097 59be 39fc e4bd
00000220: 1e7f 703c 146e 2e3d ba99 abbd 84d1 cbbc
00000230: ff39 aa3d 899f 8abe 64f1 ad3c d6fb d23e
00000240: bbda fcbc 09de ccbd 32d5 2bbe f9c4 9e3d
00000250: 2fc6 41be 5e20 50bc 729c c8bd 72bb 0cbe
00000260: 8ebf 6a3d e8df d83d 2f21 9c3c a66a 113e
00000270: 3549 6bbd 7d1f 953d 8842 fabd 8838 1c3d
00000280: 8455 c53d 4cf3 243e 3f82 de3d eaea 573e
00000290: 43cc 1d3e 5faf 4f3e 2d3c c13d e5f4 5a3e
000002a0: 937b 753e 4647 123e b1a3 84ba 2b31 93be
000002b0: 176f 913d 2771 a73d 17e0 f9bd b3ab 0ebe
000002c0: cd8a 60bd 1e11 34be 72d2 3d3e 1e2c ac3d
000002d0: e502 1bbc 1a85 9f3d 316f 3a3e 5ac2 ffbd
000002e0: 72ca febd 8557 a5bd d3f2 fcbc 9bd5 b73d
000002f0: 0c0e 333e 4474 abbe 9f75 e5bd 18fd 59be
00000300: 95c4 46bc eb71 bb3d 1b7a 97be 429a 55be
00000310: 02a1 413b 8965 c0bd 0228 823e bcca 403d
00000320: 19cd bdbd 4ce7 0f3d 6bbd 4f3d 18ec babd
00000330: 7a8a f6bc 3a84 b0bb 04fb 8d3c 3d28 a73d
00000340: 228e 8f3c 9f79 833d 7277 13be aa13 1dbc
00000350: f858 fc3d 5a60 123c 2551 30bc b74d 52bd
00000360: db4e 433c 3c32 12be 69df a6ba dd49 3d3b
00000370: 02c8 f8bd 56a6 7bbe 2085 023d d9bf bbbd
00000380: cf6f aa3d 1578 95bc fb28 e6bd d42a 81be
00000390: bbdd c83c 8062 58bc d72e 3fbd 36e8 4d3d
000003a0: d89e 6dbe 234a 163e 25a9 51bc fd2e 5d3d
000003b0: d8b2 42bd 17ad bdbd 500b c4bd 96de 8b3e
000003c0: aee2 4f3e 49de 213a f746 fabd 81fa 6abd
000003d0: cf66 033e 1a6a 843e 053b 42be 2f4f 23be
000003e0: a9cf eb3c 3c41 97bd 9462 523e 0bdb d5bc
000003f0: 7509 483d 42f7 c6be 5504 5ebd faec 053d
-0.15087055 -0.083376765 0.052319787 0.09347639 -0.10674843 0.13618897 -0.2726451 -0.09104367
-0.06386226 0.026453095 0.028461542 0.050307643 -0.17390071 -0.28015274 0.054862328 -0.1480648
-0.26474437 0.24294686 -0.07167726 -0.1992008 0.21426693 0.04681187 0.07351044 0.1498975
-0.12119331 0.22541201 -0.14236714 0.12579153 0.3054363 -0.20619054 0.12846684 0.0016080242
0.075717 0.12512533 0.216312 -0.05002725 -0.032211058 -0.027329357 -0.2635931 0.07288918
0.01145705 0.04640872 0.042202465 0.11011122 0.056980327 -0.008539152 -0.16065863 0.07290301
0.19317636 0.11443732 0.035930023 0.035199836 0.022429718 0.050105494 0.0022617213 -0.2709333
-0.12219786 0.24691293 0.0024037044 -0.122766845 0.06556603 0.15194446 -0.22054894 -0.051834695
-0.13698804 0.0030700096 -0.09469731 -0.087073505 -0.12363557 0.07376491 0.046432734 0.064573295
-0.05275042 -0.17968877 0.0019810237 -0.120638825 0.06858165 -0.28725284 0.04422414 0.12442942
-0.004036886 0.060522366 0.12866408 0.016704462 -0.05814575 -0.17273094 -0.08046125 0.29014888
-0.02865511 0.027059242 -0.23115924 0.07784346 0.17623384 0.12088682 -0.039635036 -0.04296771
0.18980299 0.09929329 0.088658355 0.05863541 0.20587096 -0.10535014 0.13335654 -0.1166483
-0.0932004 0.09321145 -0.0005913215 0.22556368 -0.00024390288 0.074457206 0.20462176 -0.105764024
0.066704065 -0.06324031 -0.025265992 0.048858352 -0.19035722 -0.020686086 0.05702933 0.19057141
0.0015198098 0.015514007 0.10771675 -0.10906268 0.19586213 -0.18228316 0.05071925 0.113276795
-0.04312259 0.11429149 -0.016124632 0.15143636 0.00010389289 -0.2410977 -0.21249127 -0.1118092
0.014678745 0.042585447 -0.083789304 -0.024880178 0.08311843 -0.2707484 0.021233268 0.4120776
-0.030866018 -0.10003287 -0.16780546 0.07752413 -0.18923257 -0.012703029 -0.097954646 -0.1374338
0.057311587 0.10589582 0.019058792 0.1420084 -0.057442863 0.072813965 -0.12219721 0.03813985
0.096354514 0.16108435 0.10864686 0.21085706 0.15409951 0.20281743 0.09435306 0.21382482
0.23972921 0.14285001 -0.0010119585 -0.2874845 0.07101267 0.08175879 -0.12200945 -0.13932686
-0.05481987 -0.17584655 0.1853731 0.08406852 -0.009461139 0.07789059 0.18206479 -0.124882415
-0.12440957 -0.08073334 -0.030877506 0.08976289 0.17485827 -0.3348714 -0.11204075 -0.21287954
-0.01213183 0.091525875 -0.29585347 -0.20859626 0.002954543 -0.09394366 0.2542115 0.047068343
-0.09267635 0.03513269 0.050717752 -0.091270626 -0.030095328 -0.0053868564 0.017331608 0.08161972
0.017523829 0.06419682 -0.14401034 -0.009587208 0.12321657 0.008934105 -0.010761534 -0.051343646
0.011920656 -0.14276975 -0.0012731376 0.0028883137 -0.121475235 -0.24575171 0.03186524 -0.091674514
0.08322107 -0.018245736 -0.11238285 -0.25227988 0.024519792 -0.013207078 -0.04667553 0.05027028
-0.23205125 0.14676718 -0.012796675 0.05399989 -0.04753384 -0.0926153 -0.0957247 0.27318257
0.20301315 0.00061747857 -0.12220567 -0.057367805 0.12832187 0.258622 -0.18967827 -0.15948175
0.028785544 -0.07385489 0.20545417 -0.026105424 0.048837144 -0.38860518 -0.05420335 0.0326967

layers.0.bias f4 [256]
00000000: d5c4 063e 6685 c83d 0af6 003e d6f8 58bd
00000010: 517b b83d 6d2a 393d ea37 a73d da02 ca3c
00000020: 7c4c 08bc 6132 6d3e 2d67 b13d 8f35 a83e
00000030: 2fa6 b23d 1d66 2a3e ccaa d5bb e744 933e
00000040: e8df c13d ff58 cb3d 640f 2b3e 1300 e03d
00000050: 8e0c 523e bb98 c33d 8e6a a1bc 94e1 37be
00000060: 1a9e 01bd a720 54bd 37df 3f3e c5b9 93bd
00000070: ae95 b03e e1d2 1b3e d145 1f3e 03a0 04be
00000080: 61f3 3c3e 50c9 913e 6a54 b83b 8a20 183e
00000090: b5b2 cbbb ba28 c43c 1201 0abe 1056 ad3d
000000a0: f960 6b3e 8cef cb3d 1087 ae3d 357a 063e
000000b0: f142 b93d c30d 04be 6908 c6bd b4c3 bb3d
000000c0: cb61 1ebe 6ff9 0dbe 657f be3c 22f5 e3bd
000000d0: c214 e4bd 7fdb 9d3e 3beb 53bd f5ab e43d
000000e0: 682e aebc 98cf d53e d9b2 833d e6cf 383e
000000f0: 80ca 35be 622c cfbd a335 cbbd 24bc b7bd
00000100: 5e49 28be b351 f83d 8b3d 8bbc c9e1 f83d
00000110: 2758 ec3b e245 bbbd 5c8e 3abe 3549 81be
00000120: d861 16bd ac95 8c3e 46c5 2f3c f6a3 eebd
00000130: c116 86bc d185 eebd 97ba 92bc 6a12 c0bb
00000140: d089 7f3e 52d5 92bd a46f 2bbe 137d 0b3e
00000150: 824e 00be 84b1 673e ff0f b13e 8d03 eebd
00000160: 8bb6 933e 45ff 203e ebe1 183d c303 a2bd
00000170: 733e 8b3e 17c2 fc3d 9710 913b 180f 993d
00000180: e508 bd3e 98b9 793d c4b6 393d 5adc 423a
00000190: 652d 8c3e 9957 223e 9983 2abd a4f3 b33d
000001a0: e1ac ab3c d2c6 813e 4744 763c 75b5 403e
000001b0: 7482 9e3e cf7f f93d d002 2c3e 15f2 ecbd
000001c0: 7354 5dbe 66f9 57bd 335b 07be 0f77 22bd
000001d0: 9a16 093e 6ef5 153d 4469 243d fa65 9dbd
000001e0: 181f bb3d 3dbd 71bd 66f6 423e cd20 a13d
000001f0: 86a4 243e a703 01be f12e 2bbe b8f4 2dbe
00000200: 3da1 963d cdef 19bb 5b99 d63d 43d3 583e
00000210: 379b e4ba f031 07be ef87 4b3e a677 5c3e
00000220: bd2a bbbd 4524 123e 3637 f2bd 738b 503e
00000230: e577 273e 9fea 053e a2cd 75be a2cb 053e
00000240: 73c9 55be 0d11 613e 90e9 033e 48b9 98bd
00000250: cd9c 363e e1ee ba3d 4e24 393c ed68 063d
00000260: c99b 0e3b 3309 103e fc91 92be 9c36 07bd
00000270: dca6 af3d 2901 3d3e b5eb 433e 2b91 533e
00000280: f4c0 bb3d 6a93 2e3e fa7d 983e 2bfe 943e
00000290: 4ec2 703b f868 803e 6d7c 983e ceb4 fcbd
000002a0: 7240 443e b350 c93d 4dcc 953d 25dd 783e
000002b0: fab9 a9bd 22d6 3bbe f488 873e be0d 9fbd
000002c0: ea79 08be 0fd0 16be 88bc a03e 9d8e 04bd
000002d0: 7f39 14be 6cb2 0f3e 2c0b 91bd df50 c7bc
000002e0: 1941 e03d 7d64 6cbd 8023 6a3c 8e41 38be
000002f0: f864 073e f59f 703c 5888 a5be 94fb 263e
00000300: 1436 f6bc 02e5 b4bd c49a 26bd d12c 073c
00000310: 571e 493e ddaa 043e 5970 a63e 669e b83e
00000320: 56da 89bc 565f 073e 6e8a cebe 4837 c03d
00000330: c42a 583e aa3e 563e 9409 ad3e a1d2 233e
00000340: 88d9 0e3e 552c 58bc a058 3b3e 5e85 b0bd
00000350: f6a4 6cbd ccb6 693e 889d c93d c302 92bd
00000360: 3832 8f3d 4b11 3e3e 2adb 263e fcfa 1fbe
00000370: 74e2 1cbe 88ad 1abe b58e 133d 963c c83d
00000380: 4687 a5bc 7cfd 2e3e 0f62 123e e80f 6a3d
00000390: 01b3 a1bd a5b6 403e 716c 14bd 0c97 a73e
000003a0: f60d e13d 4a64 a4bd 25fe 43be c78e d03d
000003b0: 239a 223d 5fd9 03be 7530 853e d7c4 97ba
000003c0: 94a9 953e a379 07bd 0ef0 823e 72a9 59bd
000003d0: 2c57 35bc 83fa c83d f1ce b3bd e419 923c
000003e0: c71b f6bc 2cf9 02be d226 f5bc 1947 093e
000003f0: e1e4 e63c 200e 9f3e 090b a83c 9e2f 0ebe
0.13161023 0.09791069 0.12593856 -0.052971683 0.09007896 0.045206476 0.08164962 0.024659563
-0.008319017 0.2316375 0.08662257 0.32853362 0.08723103 0.16640516 -0.0065206047 0.28763506
0.09466535 0.09929084 0.1670509 0.10937514 0.20512602 0.095506154 -0.01970413 -0.17957145
-0.031644918 -0.051788952 0.18737493 -0.07213167 0.34489197 0.15217163 0.15553977 -0.12951665
0.18452217 0.28473902 0.0056252973 0.14856163 -0.006216372 0.023945201 -0.13476971 0.08463681
0.22986211 0.09957799 0.08521855 0.13132556 0.09045971 -0.12895875 -0.09669573 0.09168187
-0.15466993 -0.13864683 0.023254106 -0.1113074 -0.11136772 0.30831525 -0.051738005 0.11165611
-0.021262363 0.41759944 0.06430597 0.18048057 -0.17753029 -0.10115887 -0.0992234 -0.08971432
-0.16434237 0.12124958 -0.01699712 0.1215244 0.007212657 -0.091441885 -0.18218368 -0.25251165
-0.036714405 0.2745794 0.010728186 -0.11652367 -0.016368272 -0.11646617 -0.017911239 -0.00586157
0.24954915 -0.07169594 -0.16741806 0.13621931 -0.12529948 0.2262631 0.34582517 -0.11621771
0.28850207 0.15722378 0.037324827 -0.07910874 0.27196082 0.12341707 0.0044270265 0.07473582
0.36920848 0.06096801 0.045340315 0.00074333476 0.27378383 0.15853728 -0.041629408 0.08786705
0.020956459 0.25347 0.015030927 0.1881922 0.30958903 0.12182581 0.16797948 -0.11569611
-0.21614246 -0.05272808 -0.13218383 -0.039664324 0.13387528 0.036611013 0.04013945 -0.07685466
0.0913679 -0.059018362 0.19039306 0.078675844 0.16078386 -0.1259905 -0.16717125 -0.16987884
0.073549725 -0.002348888 0.10478469 0.2117434 -0.0017441277 -0.13202643 0.19876073 0.21530017
-0.09139011 0.14271648 -0.11826937 0.20365696 0.1635433 0.13077782 -0.24004224 0.13065961
-0.20877628 0.2197916 0.12882066 -0.074572146 0.17833252 0.09127594 0.01130016 0.03281491
0.0021760336 0.14066009 -0.28627002 -0.033011064 0.08576748 0.18457474 0.19132884 0.20660846
0.09167662 0.17048422 0.29783612 0.29100165 0.0036736908 0.25080085 0.2978243 -0.12339173
0.19165209 0.09829845 0.07314358 0.2430311 -0.08287425 -0.18343404 0.26471674 -0.07766293
-0.13327757 -0.14727806 0.31393838 -0.03236257 -0.14475058 0.14032906 -0.07082209 -0.024330555
0.109499164 -0.05771302 0.01429069 -0.17993757 0.1322211 0.014686574 -0.32330585 0.16306907
-0.030055083 -0.08832742 -0.04067494 0.008250431 0.1964048 0.12955804 0.3250759 0.36058348
-0.016827744 0.13219962 -0.40339988 0.09385544 0.21110064 0.20922342 0.3379637 0.15998317
0.13950169 -0.013194163 0.18295527 -0.08619188 -0.057774507 0.22823638 0.098445 -0.07129433
0.06992 0.18561284 0.16294542 -0.15623087 -0.1532076 -0.1510526 0.036024768 0.09777181
-0.020206105 0.17088884 0.14295219 0.057144076 -0.078954704 0.18819673 -0.03623623 0.32732427
0.10988991 -0.08026941 -0.19139917 0.101834826 0.039697777 -0.12875889 0.26013532 -0.0011579049
0.2923094 -0.033074986 0.25573772 -0.05314011 -0.011068147 0.09813406 -0.08779705 0.017834611
-0.030042542 -0.12790364 -0.029925738 0.13406028 0.02818531 0.31065464 0.020513074 -0.13885352

layers.1.weight f4 [256, 256]
00000000: bee2 e43d 8a60 b93c 238c 09bd 6930 973b
00000010: e1f7 d43d f9bb 8abd 6b9f 863d 643f 01bd
00000020: 0da4 aabd 53b8 d53d bd4c 083e 37ec 8d3d
00000030: e127 c4bc 36a3 973c 980e e63c 5aed be3d
00000040: 6805 1b3d a87c ca3c 7370 7a3d a3c1 ab3d
00000050: 0552 8fbc 1a28 31bd 4d2e 22be c0af f1bd
00000060: b0ba 1cba 312e 14bc a859 a4bb f4f5 b3bc
00000070: 5b0d 843c 1e25 813d a949 803c 0077 1abd
00000080: be12 3ebd 847d 15bd 71c6 9b39 8cc2 763d
00000090: 407a a53c 847a 17be 11b2 74bd eb34 36bd
000000a0: 5248 74ba ac5a 8e3d 2136 98bd 5a37 1f3d
000000b0: 98d8 013e a57d adbc 40b1 1fbd 2856 d83c
000000c0: 87a5 2dbe 5b42 7dbb 3b6e 5c3d 3e76 c23d
000000d0: a061 73bd 664b eabb c29c 99bd 4da7 9c3a
000000e0: d5b3 e6bd 6159 b73d 737a 913c 80ac 453d
000000f0: bd75 403d e519 9d3d 8603 0b3c 4dd1 0ebc
00000100: b67d a4bd 2cb8 c23d f933 753c f99d 373c
00000110: 9f19 3bbd 1ab7 833d 7a12 a5bc 456d 8cbc
00000120: 8018 54bd 289c 8c3d bc3d d1bc 30ac 313b
00000130: 1368 eabd 77c0 d13d 23cc 273d 1681 d63b
00000140: 14f6 de3d c4df 80bd 1ca8 0abc 1507 5fbc
00000150: 2b9c 00bd 4ad7 20bd a6a4 8f3d 50d1 79bc
00000160: 23c4 e0bd e5a8 2e3d 002e 18bd f630 6c3d
00000170: 32d8 d43d 0afb 853c a484 c6bd 0237 1abd
00000180: 4400 e13d 81bc 32bd c294 673b 9748 6b3b
00000190: 25eb d83d 02e3 c4bb c930 16bc aaf5 c3bc
000001a0: 8909 9cbd b30e 793a 11d2 5abd cdaf 1e3d
000001b0: b044 e5bc 1ce4 c03b 98bf 1cbd 541f bfbd
000001c0: 126b 28bc 9c81 b4bd 8f32 95bc 7fed 053e
000001d0: 1dbd 343d 43f1 86bc 0eed d43d 950b c5bd
000001e0: 6cad b6bd faad d63c 62ed afbd 0390 30bc
000001f0: 56ab 0cbd ce51 2bbd 0155 12bd 8f43 51bd
00000200: bc44 273d 2fee 5c3c fa03 34bc 6b93 383d
00000210: a962 2fbe 6b14 723d a8e5 26bd 9ca4 493d
00000220: 0c6a 693c 90d3 cbbc 2f47 203d 3413 8dbc
00000230: ea15 83bc c337 2c3a 4376 2fbe 3046 783d
00000240: 7d9c 64bd 6916 54bc 0b42 873d 77ba 713b
00000250: 900b 9abd d068 bbbc 3f7c 133d 34a5 523b
00000260: 8ae0 74bd 0dc6 603c 1ab4 dbbb a7bc e7bc
00000270: 5567 6bbe 2c06 edbb 68d1 0fbe 53b2 713c
00000280: 48e6 b33d 56a0 1cbe 41b7 ff3b 396b 00bc
00000290: eb7e 8ebc 1e3f e73d a63b ce3d 9d6b 8abd
000002a0: 96df 573a 5e81 a13d c50b 45be 34bc ddbc
000002b0: 0a8d 8abd 5b96 593c 52b8 09bd a500 73bd
000002c0: 534f 0abc 088a a53c 9229 d33d acdf 1cbd
000002d0: 25a2 a23d 6337 3bbc 24b7 2ebd ac98 a73c
000002e0: 2fc2 e93d db80 4e3c a711 84bd 14db 9ebc
000002f0: 4a3e a23c 384c c8bd 0e9f 1fbe a3a5 753c
00000300: d29e 46bd 84cd db3c de48 babd 6f07 eabd
00000310: df44 c13c ca2f 42bb 83df 2d3d 4bc2 a83c
00000320: 701b 433d 7e25 0bbe 2797 89bc 5c89 5dbd
00000330: 41ef 643d ac73 7ebc dfca 8a3d 4fe5 51bd
00000340: d4fb fabc f5ac b33c 31cd a73d d39d a83d
00000350: 5af9 9fbc 6a7e 993d ec54 44bd 2ecc acbd
00000360: 93de 123d 732f 7e3d 4ebd 563c 268e b63b
00000370: 1919 6bbd f497 1dbe 6a07 813d 45fb 8e3d
00000380: c2b4 33bb aec9 973d 72cd 5f3d 3886 a7bd
00000390: 51af 32bb 1b73 933c 347b 94bc d468 0a3d
000003a0: d07a 6abd 0cfb efbd 573a abba 97fd b5bd
000003b0: d264 cabd a656 debd 8955 e33c 61f8 acbd
000003c0: 7e57 fe3d 5f24 82bd 585f a7bc 2ec6 383d
000003d0: 6eb5 87bd d3e9 abbd dcbf a73d 6514 98bd
000003e0: 31aa b03c 8122 87bd 7a41 993d 5ba1 453c
000003f0: 9ba5 bc3c d13a ec3c 0f04 923d acf0 84bc
0.1117606 0.022629041 -0.03358091 0.0046139252 0.10398842 -0.06774134 0.06573375 -0.031554595
-0.083320715 0.10435548 0.13310523 0.0692982 -0.023944797 0.018510442 0.02808313 0.09322615
0.037846953 0.024717644 0.061142396 0.08386543 -0.017495165 -0.043251134 -0.15837975 -0.118011
-0.00059787463 -0.009044216 -0.0050155707 -0.021967866 0.01611965 0.06305908 0.015660124 -0.037711143
-0.046404593 -0.036496654 0.00029711754 0.060244128 0.020199895 -0.1479283 -0.05974013 -0.04448406
-0.0009318638 0.06950888 -0.07432199 0.038871147 0.1268028 -0.021178076 -0.0389874 0.02640827
-0.16957675 -0.0038644287 0.05381606 0.09495209 -0.059419274 -0.0071501015 -0.07500602 0.0011951715
-0.11264769 0.089525945 0.017758584 0.048260212 0.046987284 0.076709546 0.008484727 -0.008716893
-0.0803179 0.09507784 0.0149660045 0.011207097 -0.04567873 0.06431408 -0.020150412 -0.017141948
-0.051781178 0.06865722 -0.025542133 0.0027110688 -0.11445632 0.10241788 0.040966164 0.00654615
0.108867794 -0.0629268 -0.008462932 -0.013612528 -0.031398933 -0.039267816 0.07013826 -0.015247658
-0.1097491 0.04264154 -0.037153244 0.05766388 0.103927985 0.016355056 -0.09693268 -0.037650116
0.10986379 -0.043636803 0.003533647 0.0035901421 0.10591725 -0.0060085068 -0.009166905 -0.023920853
-0.07619006 0.00095007865 -0.05342299 0.038741875 -0.027986854 0.0058865678 -0.038268656 -0.09332147
-0.010279434 -0.088137835 -0.018212585 0.13078879 0.044125665 -0.016472464 0.10396777 -0.0962135
-0.08919796 0.026206005 -0.08590199 -0.010776523 -0.034343086 -0.041826062 -0.035725597 -0.05108982
0.040837035 0.013484522 -0.010987276 0.045062464 -0.1712748 0.059101503 -0.04074636 0.04922925
0.014246475 -0.024881154 0.039130386 -0.01722107 -0.01600166 0.00065695884 -0.17134957 0.06061381
-0.0558133 -0.012944796 0.066043936 0.0036884823 -0.075217366 -0.022877127 0.036007162 0.0032141926
-0.05978445 0.013719094 -0.0067048194 -0.028288199 -0.22988637 -0.0072334018 -0.14044726 0.014751988
0.08784157 -0.15295538 0.007803828 -0.007838064 -0.017394504 0.112913355 0.10069971 -0.06758807
0.0008234916 0.07886003 -0.19242771 -0.027067281 -0.06765182 0.013280476 -0.033623047 -0.059326787
-0.008441764 0.02020742 0.10310663 -0.038299248 0.07941083 -0.011426779 -0.042655125 0.020458542
0.11413991 0.012603964 -0.064486794 -0.019391574 0.019805092 -0.097801626 -0.15588018 0.014993104
-0.048491307 0.026831396 -0.090959296 -0.11427199 0.02359241 -0.0029630535 0.042449486 0.020600459
0.04763359 -0.13588521 -0.016795708 -0.054086074 0.055892233 -0.015530508 0.06776976 -0.051244076
-0.03063766 0.021933058 0.08193434 0.082332276 -0.01952808 0.07494815 -0.04793255 -0.08437382
0.035856795 0.06205697 0.013106657 0.0055711446 -0.057396982 -0.15389997 0.06300242 0.069815196
-0.0027420972 0.07411514 0.054639287 -0.08179897 -0.0027265141 0.017999223 -0.018125154 0.03379138
-0.05724603 -0.11717805 -0.0013063651 -0.08886259 -0.09882511 -0.10856371 0.027750747 -0.08445812
0.124190316 -0.063545935 -0.020431206 0.045110874 -0.06626402 -0.08394208 0.08190891 -0.07425765
0.021565529 -0.06598378 0.07483192 0.012062396 0.023028186 0.02883664 0.0712968 -0.016228043

layers.1.bias f4 [256]
00000000: 5956 1e3e 5ce2 7ebd ab67 653d 689b a0bc
00000010: 67e5 21bc 4023 c0bc 0fbf ae3d 9de3 4f3d
00000020: e17a 293e 60fe 3fbc 5060 27bd bbd3 7f3c
00000030: 7883 853d cd60 5c3d 71a1 00bc b50b e13c
00000040: d487 b53c 5809 f13c a1e3 8abd 6ef0 813d
00000050: 74ef 223c d809 bebc 70b7 a0bc 1d77 12bd
00000060: 61da 6fbd 885f 913c 9dbc 8a3d 8aaf f63c
00000070: f555 bb3d 13c0 893d 8a7b 79bd 5d6d e83d
00000080: 7fe4 663d b659 773c 57ba a5bd 946f d43c
00000090: 9616 a53d b372 83bd 3696 8a3c 7344 703c
000000a0: 1f93 ad3c 8a96 cebc 5582 363c e2f4 3cbe
000000b0: 770a 473b 32f2 06be 461e 4d3d 310d 773c
000000c0: 2c79 533d 3767 503c bf32 f33d 4fe3 3a3d
000000d0: 9fe3 4fbd 463f 993d 23a7 43bd eb33 f23d
000000e0: f5c4 603d 5efc 49bd 41f2 5a3d 2e44 6bbd
000000f0: 2d11 643d d344 85bb aba0 8b3d 05f5 263d
00000100: f84a c13d 12c4 52bd c685 a73c 9425 873c
00000110: 33cc 1bbe 3468 513d 91c8 8cbd 3086 f1bd
00000120: e2b0 eebc a809 ac3d f416 d93c 76d6 383d
00000130: 45c1 213d 9d61 803d bc26 0fbd a3bc 27bd
00000140: d168 c9bc e89f 663d 8db0 5fbd 3df5 d03b
00000150: 7c8e ff3d 8c03 a8bc 8ae0 b8bd 1ec3 013d
00000160: eb9f 06bd a108 a03d 9439 0a3d 107f 79bd
00000170: b155 e53d 7fdc d5bd 1aff 483c 6d13 f33d
00000180: 3908 943c 7368 183e 4430 acbd a1db 0e3d
00000190: 0a94 383a e184 b23c d300 d33d 8f7e 043e
000001a0: e58b 66bd 7433 2d3d 6b16 fd3d e7b8 aa3d
000001b0: 7ffc a7bc 5874 5d3d cb4e 893b 501f 3cbd
000001c0: b544 8d3d 58cb cc3b eb05 6c3d 6270 293e
000001d0: f705 983c f1c1 d33d 2680 b93c 4ba4 7dbc
000001e0: ef2a 04bc a364 ca3d c1d1 6c3d 5ef7 223d
000001f0: b92b 85bc 3ee0 763d c694 ac3d 313b a2bc
00000200: d42d ddbc e54b b23c 53b6 96bb 80e7 ed3c
00000210: 3c2f fa3c a195 683d cd79 a83c d312 ff3d
00000220: 33fd 12be 920b aa3d 30f8 b0bb 9d31 96bd
00000230: 9b7b 71bc 315a c03d b094 61bd b5a9 a8bb
00000240: 2861 3a3d 3428 8fbd 1c22 333d 6be1 063e
00000250: 217a 92bc 47d7 4bbd 62db 81bd 7a02 933d
00000260: cdb8 c23d 9e4a a53d 5db4 313d c31b c63c
00000270: a235 b83d f223 dd3d fc7c 3d3d 6107 163d
00000280: 0d10 f93c da9f 90bb 26ef ac3c 25b1 51bd
00000290: 9b6e 3abc de32 10bc ca89 84bd 3e2a 0f3d
000002a0: 3788 dd3d 25ec 633d 67b9 12ba fdb2 223d
000002b0: b4b6 c9bd de75 dc3c 3592 483b d0fb 853d
000002c0: 5cb2 31bd e1d9 e5bc 3304 943b eacc 083e
000002d0: 2668 d43c c752 ab3d 1ae4 05bd d081 553d
000002e0: f504 ab3d 0ea3 043c f47d d0bc e0a2 bf3c
000002f0: 4fe0 8a3d 4be7 b5bc 9b10 213d 3d6c cabd
00000300: 5cf0 10bd b9fc 483d 53cc ec3c bd8c 0abe
00000310: c90d 8f3b ad6c 843d 8040 9ebd c16e ff3d
00000320: eae3 b23d 8079 503d baa6 5dbe 748d 88bd
00000330: 252b 75bc a7ef 723d 1fdb ad3d 50fc d03c
00000340: c51f c43b 6a7b ac3d fa57 0e3d bada 193e
00000350: d64c 9d3b 123e a53c 0764 513d 67f6 723d
00000360: c821 663d b6ec 7f3d dcd9 6f3c 1e4b 0d3c
00000370: 7dd5 ae3d 670d b0bc 3c09 f53b 048f 543b
00000380: 910a 133e 95d9 683d 3939 4b3d ef72 f6bc
00000390: c872 73bd 9d9d c8bb 96ff 643d 2cfc 0c3b
000003a0: 1338 8dbd aa93 993d 8c68 0d3e f32d 66bc
000003b0: 9891 923d 5fa1 ca3c 0e24 903d 410f 22bd
000003c0: cd3c ce3c 2251 acbc 9e06 fdbd f275 953d
000003d0: b724 f4bc b23e dfbd bc28 82bc f747 9a3d
000003e0: dd1e d3bd 1c2d 583d a54f 21bd e38d ecbb
000003f0: 9bf6 bfbc 6579 ac3d 10f7 a63d 73ad f03d
0.15462627 -0.062227592 0.05600707 -0.019605353 -0.009881354 -0.023454309 0.08532535 0.05075418
0.16550781 -0.011718363 -0.040863335 0.015614445 0.06519216 0.053803254 -0.007850991 0.027471403
0.022159494 0.0294234 -0.06781698 0.063446864 0.009944785 -0.023198053 -0.01961872 -0.035758127
-0.05855787 0.017745748 0.067742564 0.030113 0.091472544 0.067260884 -0.06090883 0.113489844
0.056370255 0.015097072 -0.08092182 0.02593211 0.080609486 -0.064183615 0.01691733 0.014664757
0.021188317 -0.025218267 0.011139472 -0.1845279 0.0030371228 -0.13178328 0.0500777 0.015078829
0.05162923 0.012719921 0.118749134 0.045626935 -0.050754186 0.074827716 -0.047766816 0.11826309
0.054875333 -0.04931294 0.053453688 -0.057438068 0.055680443 -0.0040670424 0.06817754 0.040761013
0.09438127 -0.05145652 0.02044953 0.01649741 -0.15214615 0.051124766 -0.068741925 -0.11793172
-0.029137079 0.08400279 0.026500203 0.0451264 0.039490957 0.06268618 -0.03494905 -0.040951382
-0.024586113 0.056304842 -0.05461173 0.006376891 0.124783486 -0.020509504 -0.090272024 0.03168022
-0.032867353 0.07814146 0.033746317 -0.060912192 0.11197985 -0.10442447 0.012267852 0.118689395
0.018070327 0.14883594 -0.084076434 0.034877423 0.00070411025 0.021791877 0.103028916 0.12938903
-0.056285758 0.042285398 0.123577915 0.083360486 -0.020506142 0.054066032 0.004190301 -0.0459283
0.068978705 0.0062498264 0.05762283 0.16546777 0.018557532 0.10339726 0.022644114 -0.015481065
-0.008066877 0.09882476 0.057817224 0.03978669 -0.0162562 0.060272448 0.08426814 -0.019803615
-0.026999392 0.021764705 -0.0045993715 0.029041052 0.030540101 0.056783322 0.020565892 0.12454762
-0.143544 0.08302988 -0.00540068 -0.07333682 -0.0147389425 0.09392203 -0.05507344 -0.005147184
0.04550281 -0.0699009 0.0437337 0.13171928 -0.017880501 -0.04976585 -0.06340672 0.07178207
0.09507904 0.08070873 0.0433849 0.02418316 0.08994605 0.10797872 0.046261773 0.03662813
0.030403161 -0.004413587 0.021110129 -0.05119433 -0.011378909 -0.00880119 -0.06471594 0.034952395
0.108169965 0.055645127 -0.0005597085 0.039721478 -0.09849301 0.026911672 0.0030604724 0.0654217
-0.043382987 -0.028057994 0.004517102 0.13359419 0.025928568 0.08365398 -0.032688238 0.052125752
0.08350555 0.008095516 -0.025450684 0.023393095 0.06781065 -0.022205016 0.039322477 -0.09883926
-0.035385475 0.04906914 0.028906023 -0.1353025 0.004365657 0.06466041 -0.07727146 0.124722965
0.087348774 0.05089712 -0.21645632 -0.06667605 -0.0149639 0.05931058 0.0848906 0.025510937
0.0059852325 0.08421977 0.03475187 0.15024844 0.0048004193 0.020171199 0.051120784 0.05931702
0.05618456 0.062481605 0.014639344 0.008623866 0.085368134 -0.021490766 0.0074779075 0.0032433877
0.143595 0.056848127 0.04961512 -0.030084101 -0.059435636 -0.0061223046 0.05590781 0.002151261
-0.06895461 0.07498868 0.13809413 -0.014049041 0.07156676 0.02473515 0.07038127 -0.03956533
0.025175476 -0.02103478 -0.12354778 0.07297887 -0.029802663 -0.1090063 -0.015888564 0.075332575
-0.10308621 0.052777395 -0.039382596 -0.0072190627 -0.02343302 0.08421592 0.08152592 0.11751833

layers.2.weight f4 [1, 256]
00000000: bddc 333e f1b7 2f3e 51e2 ed3d 276f 56be
00000010: 1ef5 1cbe ce4c 99be f87d 593e a9f2 91be
00000020: a1b8 7e3e d5ab 63be 69ba 673e 89ff dfbd
00000030: 3017 7ebe 5b7f 463e f36d 0ebe 00d6 91bd
00000040: e00a 4d3e d47a 823e cecb 4e3d 6b21 663e
00000050: 085e 843e 9002 5c3e c67a c13e da16 873e
00000060: 6735 433e da81 edbd 3afa 46be 8951 273e
00000070: 94eb 963e 1fb1 2bbe 4c42 66be 60fc 713e
00000080: af99 45be 20d6 29be 219e 57be 8e0e 2f3e
00000090: 3022 733e 62a8 42be 2a1f 6b3e 4424 7cbe
000000a0: 9e90 253e 8e60 8abe 0b7e 2fbe b1f0 ab3e
000000b0: 5800 84be 0dad 2e3e d442 3d3e ecef 953d
000000c0: 3e59 7bbe a550 09be 139a 7e3e 3359 203e
000000d0: 485d 26be b1aa 623e fbee a73e 1004 923e
000000e0: a8f3 8f3e 85c2 53be 4553 6cbe 7397 5c3e
000000f0: 8232 e6bd 4a47 7c3e 1d86 47be f33a 4f3e
00000100: 3c84 3cbe 9723 813e 89e9 d0bd 2a00 c2bd
00000110: dda4 78be 6c46 903e 44c5 2b3e b699 90be
00000120: 0f69 3f3e cf8b 403e ae14 433e 70c3 4b3e
00000130: edd6 58be 4458 463e 9545 71be 35fb 623e
00000140: 4cff cd3e 0f11 a63e 9e6a f33d b9bb 7ebe
00000150: 4670 583e beee 823e c914 353e 2936 6ebe
00000160: 6a49 71be 9613 d83d f2cb 95be 29ac 423e
00000170: 4018 5ebe 0ed4 47be 311a 54be 13d2 69be
00000180: f8ff 3e3e e708 5a3e 8769 69be 6267 273e
00000190: ae1e 343e 0964 28be 1a90 1dbe 20ef 6e3e
000001a0: f9f1 60be efd2 873e 444d 4d3e 8a23 8cbe
000001b0: 3617 533e 2763 63be d6c8 6b3e f51e 0cbe
000001c0: 72d2 68be 686c c9bd 4d76 71be 49af 983e
000001d0: 857b 2d3e 08a2 5e3e 7dca 5ebe ca96 35be
000001e0: 3609 e3bd 7e15 743e 722a 653e f603 443e
000001f0: bf57 94bd 36aa 5abe 9877 b03e d5de 523e
00000200: a43e 4c3e 1312 593e 9cbd 3ebe 7466 e4bd
00000210: d49a 583e 50a8 41be 0845 85be 119c 643e
00000220: 7647 653e d511 903e 057b 883e a956 41be
00000230: 8851 2b3e 3fe4 a5be 08a7 2f3e c218 113e
00000240: a5ed 6cbe d195 543e b3d3 4abe c036 393e
00000250: 93bc 72be 7a2c 4f3e 5e09 953e 5f54 223e
00000260: f6af a2be 19da f9bd 977e 0d3e 99c9 283e
00000270: 322e 933e 43e4 72be 98dd 383e 1cbf 07be
00000280: 4425 1c3e ed72 2fbe 54d7 40be 937b c3be
00000290: a83c febd 3775 51be a6a6 19be 8f20 52be
000002a0: d0b6 69be fa34 3f3e 89c3 18be c80d 17be
000002b0: ad13 2c3e a6f5 5cbe 05c6 8dbd 7203 15be
000002c0: 8998 1cbe c2a5 1d3e 2e82 afbd 2b01 383e
000002d0: 1d77 16be 4fc7 2bbe 7883 2dbe 8bea dabd
000002e0: 0bbf a53e 7a4d 47be 7b7e 83be a7c8 dfbd
000002f0: 86d9 533e 22e3 6cbe 0bf1 293e 16c0 a63e
00000300: 0699 34be e4fb 3ebe 8329 22be fdd7 0bbf
00000310: f32e 8d3e 43ae 79be b6be 373e f806 7a3e
00000320: 3eb8 9f3e e71d 8ebd 4aff dcbe 423a 6c3e
00000330: 2d26 82be 58b3 523e f17e 28be beda c3bd
00000340: d1eb 1b3e b5fd 65be fd4d 403e 8adc 973e
00000350: 65c3 503e 2e4b 843e 442f 47be cf5e 693e
00000360: cf94 58be 907f 97be 38e8 49be b9b8 f33d
00000370: 1517 373e 1651 6a3e 0a81 42be 9ce0 2c3e
00000380: 53d9 4e3e dfbb 4fbe 60b3 8c3e 555d 83be
00000390: 5268 82be 5ce2 47be 134d 41be b467 45be
000003a0: 643b 1b3e 9283 393e bad3 5bbe 3d36 09be
000003b0: f884 45be 021d 5abe bcbe 54bd 8a7a 3d3e
000003c0: 5f49 50be 9b78 d0bd c3bb 593e 3a2d 803e
000003d0: d315 92be 520b c4be 66c2 a4bd 52dc 26be
000003e0: c218 c9be 2f41 b9bd bcb0 5bbe 29ee d5bd
000003f0: b8de 1a3e 2474 4dbe 87ab 5abe bdfc 60be
0.17564674 0.17160012 0.11615432 -0.20940839 -0.1532788 -0.2994141 0.2123946 -0.28505448
0.24875118 -0.22233517 0.22629704 -0.10937411 -0.24813533 0.1938452 -0.1390913 -0.071208954
0.2002368 0.25484335 0.050487332 0.22473685 0.2585299 0.21485353 0.3778898 0.26384622
0.1906334 -0.11597033 -0.19431391 0.16339697 0.29476607 -0.16766785 -0.22486228 0.2363143
-0.19296907 -0.16585588 -0.21056415 0.17095396 0.2374351 -0.19009545 0.22961107 -0.24623209
0.16168448 -0.2702679 -0.17137925 0.3358207 -0.25781512 0.17058201 0.18482524 0.07321152
-0.24545762 -0.1340967 0.24863462 0.15659027 -0.16246521 0.22135426 0.32799515 0.28518724
0.28115582 -0.20679672 -0.2307864 0.21542148 -0.11240102 0.2463657 -0.19484754 0.20237331
-0.18409818 0.25222465 -0.10200793 -0.094726875 -0.2428164 0.28178728 0.1677447 -0.28242272
0.1869242 0.18803333 0.19050857 0.19898772 -0.21175738 0.19369608 -0.235617 0.2216614
0.4023384 0.3243489 0.1188557 -0.24876298 0.21136579 0.2557277 0.1768371 -0.23262848
-0.23563161 0.10550611 -0.2925716 0.19010986 -0.21688938 -0.19514486 -0.20713116 -0.22834043
0.18652332 0.21292458 -0.22794162 0.16348031 0.17589828 -0.1644441 -0.15387002 0.23333406
-0.21967305 0.26528117 0.20049006 -0.27370864 0.20614323 -0.22205792 0.23025832 -0.13683684
-0.22736529 -0.0983513 -0.23580284 0.29821232 0.1694165 0.21741498 -0.2175693 -0.17733303
-0.11085741 0.23836324 0.22379473 0.19142136 -0.07243299 -0.21353993 0.34466243 0.20592816
0.1994577 0.21198301 -0.18627018 -0.11152354 0.21152812 -0.18911862 -0.2602923 0.2232516
0.22390541 0.28138605 0.26656356 -0.18880714 0.1673032 -0.324007 0.17153561 0.141696
-0.23137529 0.20760275 -0.1980732 0.18087292 -0.23704748 0.2023181 0.2910871 0.15852498
-0.31774873 -0.12199802 0.13817821 0.16483153 0.28746182 -0.23719887 0.18053281 -0.13256496
0.1524859 -0.17133684 -0.18832141 -0.38180217 -0.12413913 -0.2045487 -0.15004978 -0.20520233
-0.22823644 0.18672553 -0.1491834 -0.14751351 0.1680438 -0.21578082 -0.06922535 -0.14552096
-0.15292563 0.15395263 -0.08569752 0.17969196 -0.14693876 -0.16775249 -0.16944683 -0.10689267
0.32372317 -0.19463149 -0.25682434 -0.10926943 0.20688447 -0.2313352 0.16595857 0.32568425
-0.17636499 -0.18650776 -0.15836148 -0.54626447 0.27574882 -0.24382882 0.17943844 0.24416721
0.31195253 -0.06939297 -0.4316352 0.23069099 -0.2541975 0.20576227 -0.16454674 -0.09563206
0.15226676 -0.22460063 0.1877975 0.29660445 0.20387037 0.25838608 -0.19451624 0.22790073
-0.21150516 -0.2958951 -0.1971749 0.119004674 0.17879899 0.22882494 -0.18994537 0.16882557
0.2020009 -0.20286511 0.27480602 -0.25657144 -0.25470215 -0.19519943 -0.18877058 -0.19277841
0.15159374 0.18116596 -0.21467486 -0.13399597 -0.19289005 -0.21300128 -0.05193971 0.18503776
-0.20340489 -0.10179254 0.21263032 0.25034505 -0.28532276 -0.38289887 -0.08044891 -0.16294983
-0.392767 -0.09045636 -0.21454138 -0.10445816 0.15124023 -0.20063835 -0.21354495 -0.21971412
