torch/pretrained/fmnist-vae-2d-discr.pt (torch, 214223 bytes, 7 tensors)

net.0.weight f4 [32, 1, 4, 4]
-0.09637518 0.016743375 -0.11656066 0.10075057 -0.22091655 0.1940749 -0.18805212 -0.19294421
-0.16736928 0.12324973 -0.095527165 0.09951113 -0.22200012 -0.15925442 -0.100762315 -0.043134477
-0.1938324 0.16298476 -0.059818275 0.07905264 0.17464751 0.0469227 0.06969546 0.24196751
-0.114643015 0.07841353 -0.11062181 0.17884313 0.19958298 -0.23119706 0.21531872 0.120718494
0.10748569 0.10433499 0.21287094 -0.028231591 -0.21967563 -0.07935307 -0.18063885 0.019412138
-0.052505046 -0.13816024 -0.020257251 0.24515867 -0.02077482 0.008450094 -0.035178892 0.047103386
0.2267136 0.1583888 0.09149807 0.0550287 0.059615664 0.09995727 -0.03363652 -0.2365598
-0.15615687 0.21659657 0.012749417 -0.20767893 0.038512286 0.20960222 -0.23921056 -0.17327575
-0.09258098 0.018109161 -0.049807474 -0.018843837 -0.2369051 0.1255813 0.22834612 0.16172671
-0.17181505 -0.1944954 0.11211334 0.013998265 0.109200105 -0.23722002 -0.0066351513 0.18477559
0.12110283 0.015475155 0.05530322 -0.016902497 -0.13197282 -0.08845993 -0.14630118 0.21442266
0.14395122 0.09393752 -0.18562347 0.19961171 0.08509176 0.17980559 -0.092028074 0.059968796
0.24542163 0.16989061 0.20268902 -0.05394716 0.1897675 -0.19809808 0.020970117 -0.14296646
-0.06066019 -0.066664375 0.020067118 0.22869098 0.12208426 -0.0021181696 0.17945796 -0.12870687
0.1270274 -0.024315784 -0.043357067 0.029480077 -0.19467376 0.02842219 0.08682374 0.21655282
-0.08043792 0.08989631 0.25364274 -0.106012136 0.23661682 -0.12509316 0.11188635 0.09842933
0.07478727 0.20180517 -0.098083705 0.0701338 0.0054639773 -0.18563756 -0.058921613 -0.16375579
0.115199305 0.025968095 0.02782673 -0.07140441 0.005293921 -0.07455615 0.0756559 0.24846962
0.048077542 -0.100957096 -0.1426453 0.03034186 -0.17770657 -0.1805838 -0.15474705 -0.07401744
0.026099756 0.17955208 0.10449256 0.20146295 -0.14940546 0.028366845 -0.21478891 0.1533971
0.055676162 0.24601288 -0.17670211 0.20348996 0.21565773 0.20736425 0.03683111 0.22930846
0.17093407 0.1908421 -0.017133556 -0.19412445 -0.0013311568 0.048675895 -0.17268082 -0.14733063
-0.22904372 -0.07630813 0.22856398 0.052806657 -0.0057022856 0.019530594 0.16413312 -0.21333809
-0.18712446 -0.07612471 -0.13686031 0.13529712 0.18335241 -0.23659013 -0.21468857 -0.23644365
0.105230026 0.21217641 -0.18230549 -0.10416648 0.0908117 -0.15188053 0.2239959 0.0699111
-0.05856496 0.027848696 0.089591846 -0.07674553 -0.18366988 0.0132657075 0.01619108 0.016727163
-0.02851609 0.16809092 -0.061746743 -0.016214596 0.11132155 -0.1503656 0.07471719 -0.047325764
0.12830949 -0.1286975 0.016968837 0.032549962 -0.19394155 -0.17514704 0.103718676 -0.065396756
0.15902123 -0.24552226 -0.13487695 -0.21665028 0.11037158 0.0018675912 -0.05159608 -0.041596636
-0.1855224 0.081126586 0.0062423195 -0.16735092 0.104978725 0.0059398585 -0.23938486 0.14556028
0.13453682 -0.047402278 -0.17532592 0.008350766 0.19206417 0.23105952 -0.19028151 -0.114639685
0.19945645 0.12506653 0.15525204 -0.12489355 0.21767998 -0.20637608 -0.013420645 0.003846883
00000000: 5a60 c5bd 6729 893c 5bb7 eebd 5156 ce3d
00000010: f337 62be 92bb 463e bc90 40be 2b93 45be
00000020: da62 2bbe 5b6a fc3d bfa3 c3bd 7ecc cb3d
00000030: 0054 63be 9713 23be 795c cebd c7ad 30bd
00000040: 007c 46be 7ae5 263e 0204 75bd 5ae6 a13d
00000050: ccd6 323e 0432 403d 7ebc 8e3d 55c6 773e
00000060: f5c9 eabd 4697 a03d b08d e2bd a722 373e
00000070: 7b5f 4c3e ecbe 6cbe 837c 5c3e 423b f73d
00000080: 7521 dc3d 95ad d53d d7fa 593e f045 e7bc
00000090: a6f2 60be dd83 a2bd 64f9 38be 3406 9f3c
000000a0: 880f 57bd e179 0dbe 89f2 a5bc e00a 7b3e
000000b0: f52f aabc 4372 0a3c be17 10bd 7bef 403d
000000c0: 9c27 683e ac30 223e 5763 bb3d c665 613d
000000d0: 8e2f 743d 66b6 cc3d 73c6 09bd bb3c 72be
000000e0: 96e7 1fbe 7ecb 5d3e eee2 503c c9a9 54be
000000f0: 0fbf 1d3d f7a1 563e 9df3 74be 336f 31be
00000100: 199b bdbd aa59 943c ec02 4cbd 645e 9abc
00000110: 4097 72be 6298 003e 91d3 693e b09b 253e
00000120: 49f0 2fbe cd29 47be ae9b e53d fb58 653c
00000130: 4ea4 df3d cee9 72be af6b d9bb d035 3d3e
00000140: c304 f83d 818b 7d3c a185 623d 1b77 8abc
00000150: e223 07be 7b2a b5bd facf 15be 9d91 5b3e
00000160: f367 133e 5162 c03d 1414 3ebe 0367 4c3e
00000170: 9744 ae3d f51e 383e 3779 bcbd d7a1 753d
00000180: cf4f 7b3e cef7 2d3e b68d 4f3e b2f7 5cbd
00000190: 6952 423e 39da 4abe 86c9 ab3c cd65 12be
000001a0: d276 78bd 5587 88bd cc63 a43c f82d 6a3e
000001b0: 5007 fa3d fdd0 0abb d4c3 373e bccb 03be
000001c0: 7913 023e e531 c7bc 2e97 31bd 3480 f13c
000001d0: 8f58 47be a7d5 e83c a5d0 b13d 06c0 5d3e
000001e0: a3bc a4bd 8e1b b83d 76dd 813e e41c d9bd
000001f0: ae4b 723e 6c18 00be ac24 e53d 5195 c93d
00000200: 112a 993d 04a6 4e3e 1ce0 c8bd 4fa2 8f3d
00000210: 2a0b b33b c617 3ebe ca57 71bd 99af 27be
00000220: 9ded eb3d 0bbb d43c e2f4 e33c 7a3c 92bd
00000230: a178 ad3b e5b0 98bd 7bf1 9a3d d26e 7e3e
00000240: f5ec 443d 98c2 cebd 9c11 12be 7e8f f83c
00000250: b6f8 35be f6ea 38be 0376 1ebe 7596 97bd
00000260: 28cf d53c 80dc 373e 3200 d63d 4e4c 4e3e
00000270: bffd 18be 9661 e83c a0f1 5bbe 2114 1d3e
00000280: b00c 643d cdea 7b3e 66f1 34be ac5f 503e
00000290: 61d5 5c3e 4b57 543e 38dc 163d d6cf 6a3e
000002a0: 5709 2f3e 1d6c 433e ac5b 8cbc 8fc8 46be
000002b0: 367a aeba 6060 473d 3ed3 30be d7dd 16be
000002c0: 708a 6abe 7047 9cbd ad0c 6a3e cb4b 583d
000002d0: 3dda babb a0fe 9f3c 8312 283e 4d75 5abe
000002e0: 8e9d 3fbe 46e7 9bbd 1c25 0cbe 548b 0a3e
000002f0: bcc0 3b3e af44 72be 52d7 5bbe 491e 72be
00000300: d782 d73d c644 593e 4aae 3abe 3c55 d5bd
00000310: 7cfb b93d 9286 1bbe 2e5f 653e 8d2d 8f3d
00000320: d0e1 6fbd f322 e43c ee7b b73d c32c 9dbd
00000330: f513 3cbe 6958 593c 28a3 843c 6707 893c
00000340: 939a e9bc 0720 2c3e 27ea 7cbd 79d4 84bc
00000350: 8efc e33d 71f9 19be 5305 993d a9d8 41bd
00000360: 9063 033e 47c9 03be 3b02 8b3c 1c53 053d
00000370: 9d98 46be bf59 33be 756a d43d bcee 85bd
00000380: 76d6 223e 306a 7bbe 2f1d 0abe 92d9 5dbe
00000390: 7f0a e23d f6c9 f43a 6956 53bd 3c61 2abd
000003a0: 96f9 3dbe b225 a63d 5f8c cc3b 0a5e 2bbe
000003b0: 16ff d63d 25a3 c23b 4e21 75be c10d 153e
000003c0: 05c4 093e e428 42bd a388 33be a7d1 083c
000003d0: 78ac 443e de9a 6c3e 28d9 42be 36c8 eabd
000003e0: 503e 4c3e 7111 003e 64fa 1e3e 31c8 ffbd
000003f0: 80e7 5e3e 4054 53be 44e2 5bbc fd1b 7c3b

net.0.bias f4 [32]
0.054032307 -0.25018364 0.0257921 -0.080509774 -0.013784633 0.1505687 -0.09198922 -0.19058591
0.021718604 -0.059644163 -0.12057352 -0.06772966 -0.13017647 0.22536792 0.025681142 -0.1317714
0.16360237 0.046120286 0.14259501 0.2004668 0.25362355 -0.068857275 0.00932131 -0.1459925
0.23357885 0.087485835 -0.04745343 0.06837762 0.25387564 0.10415243 0.12144927 0.23468666
00000000: fb50 5d3d 1218 80be f449 d33c 4fe2 a4bd
00000010: f1d8 61bc ae2e 1a3e d864 bcbd f428 43be
00000020: 37eb b13c 704d 74bd 40ef f6bd d9b5 8abd
00000030: fb4c 05be d9c6 663e 4261 d23c 15ef 06be
00000040: 6187 273e a0e8 3c3d 6d04 123e 2b47 4d3e
00000050: f2da 813e 0b05 8dbd 68b8 183c 0f7f 15be
00000060: 4b2f 6f3e c62b b33d 875e 42bd 9109 8c3d
00000070: fdfb 813e df4d d53d 65ba f83d b351 703e

net.3.weight f4 [32, 32, 4, 4]
0.009970249 0.0072314 0.018729 -0.034874942 0.023819802 0.0065466436 0.0056392215 0.00921301
0.047273107 0.01927217 -0.032567266 0.04790027 0.034899723 0.028491993 0.024451667 0.010557547
-0.021750454 0.029494856 -0.033081215 -0.028106455 0.0005674812 -0.034048777 0.039629642 0.04239137
0.022991234 0.027250327 -0.04284075 0.036115713 0.0073642572 -0.028381504 -0.032072037 0.007871294
0.035597928 -0.002756051 -0.0014534874 -0.003769901 -0.032969557 0.039923314 0.0048746234 -0.03187386
-0.024386652 0.022496203 -0.032350224 0.038901806 -0.027758174 0.006880336 0.021757588 -0.017663855
-0.019912995 0.0020602338 0.01229825 -0.00560219 0.028836144 0.02939081 0.020557033 0.043389495
-0.016938865 -0.028563013 0.012511461 0.009894049 0.05265822 0.05133866 0.020041829 0.027404852
0.025952466 0.00022546554 -0.035082735 -0.014398135 -0.032360442 0.0352929 -0.017131127 -0.034180515
-2.3988197e-05 0.032975297 0.022362031 0.01606921 0.0011679583 -0.036615744 -0.022587432 -0.038677532
-0.009293863 0.031552725 -0.028154822 -0.01095914 0.04775329 0.033869546 0.01717054 0.02930263
-0.007131665 -0.020732153 0.0237471 0.013314925 -0.010196445 0.038441733 -0.0289717 -7.976596e-05
0.042475432 0.018320423 -0.031558182 0.008204426 -0.0012409823 0.020272631 0.025652587 -0.0304366
-0.010133438 0.037804157 -0.031974673 -0.0110688675 -0.007523198 -0.008639445 -0.0070660333 0.023867982
0.030921195 -0.013765772 0.0057095266 -0.041704223 -0.014097729 -0.002621812 -0.0020730288 0.006725824
0.004057063 -0.012981134 0.031007303 -0.015680684 0.037252 0.02659741 -0.0012875126 -0.018326828
0.029267907 0.0041822684 -0.019890564 0.026437666 0.009107706 0.04859665 -0.03767375 0.010386642
-0.036452614 -0.015176504 -0.0029777628 0.031264625 -0.010769089 -0.019309618 -0.001914633 -0.0092783645
-0.034730267 -8.809059e-06 0.022111319 -0.02242265 -0.034940183 -0.03330542 0.018241573 -0.007171661
0.029645454 -0.006761399 -0.0035865635 0.03144195 0.0133919045 -0.03376106 0.002954002 -0.006586544
-0.022459324 0.04188904 0.021693667 -0.019165434 -0.03162136 0.021507075 -0.037296012 0.008546978
-0.01976768 0.010623762 0.008207765 0.02077264 -0.0048958715 0.004556104 -0.02507415 0.0021126333
0.013352808 0.048153486 0.048983067 -0.0019344722 -0.00888323 0.0037609946 -0.019220654 -0.012338855
-0.02181323 -0.023021508 0.04363323 0.020933732 -0.011710949 -0.038987502 0.026354456 -0.01796229
-0.03846597 -0.03587459 0.0230273 0.013399361 0.008762535 -0.034822766 0.020687873 -0.03191969
0.014075841 0.010761421 -0.025020918 0.0041069873 -0.027159825 0.042546794 -0.011252414 0.021697907
-0.03697094 0.015231211 -0.040962547 -0.004247449 0.012643525 -0.0011751546 0.028013065 0.035994925
-0.029913072 0.03306525 -0.029831268 -0.028135644 -0.006558317 0.041255854 0.03300367 -0.0028517405
-0.0143352905 -0.0082810735 -0.009137114 0.028573975 0.009663172 -0.00049539044 -0.027877761 0.0056979675
0.037403088 0.03759064 0.010808903 0.041898955 -0.000861007 0.044537988 0.032153577 0.038534023
0.030558527 -0.033259943 0.027029729 -0.029060544 -0.020420287 -0.024079747 -0.017186323 -0.038700458
0.047299433 -0.010427843 0.030832063 0.03979482 0.03778461 0.04212771 0.0045403363 -0.04338306
00000000: 415a 233c 61f5 ec3b 8f6d 993c 07d9 0ebd
00000010: bf21 c33c 3a85 d63b 38c9 b83b 2af2 163c
00000020: 72a1 413d abe0 9d3c 4165 05bd 1333 443d
00000030: 03f3 0e3d 0a68 e93c dd4e c83c 90f9 2c3c
00000040: 022e b2bc 329f f13c 2b80 07bd 823f e6bc
00000050: 05c3 143a bb76 0bbd b152 223d 93a2 2d3d
00000060: 1d58 bc3c 143c df3c c879 2fbd 12ee 133d
00000070: de4f f13b 5480 e8bc f85d 03bd 9af6 003c
00000080: 22cf 113d dd9e 34bb f282 beba 7210 77bb
00000090: 160b 07bd a186 233d 4ebb 9f3b 2a8e 02bd
000000a0: 84c6 c7bc f549 b83c ab81 04bd 8057 1f3d
000000b0: 1c65 e3bc 7174 e13b f83c b23c cab3 90bc
000000c0: 9420 a3bc fd04 073b 997e 493c 9392 b7bb
000000d0: c739 ec3c ffc4 f03c 3967 a83c 2fb9 313d
000000e0: 60c3 8abc fbfc e9bc dffc 4c3c a61a 223c
000000f0: 25b0 573d 7d48 523d c32e a43c 2480 e03c
00000100: 449a d43c f26a 6c39 eab2 0fbd 28e6 6bbc
00000110: 628c 04bd 4a8f 103d 9456 8cbc de00 0cbd
00000120: 433a c9b7 1b11 073d 9430 b73c 93a3 833c
00000130: 2d16 993a 64fa 15bd 4709 b9bc 556c 1ebd
00000140: 4945 18bc 6e3d 013d f1a4 e6bc f78d 33bc
00000150: f498 433d cbba 0a3d 3ba9 8c3c 120c f03c
00000160: beb0 e9bb 7ad6 a9bc 4789 c23c d826 5a3c
00000170: fd0e 27bc 1475 1d3d 0f56 edbc 0648 a7b8
00000180: b8fa 2d3d b614 963c 2743 01bd db6b 063c
00000190: 75a8 a2ba ca12 a63c 6025 d23c 2d56 f9bc
000001a0: b806 26bc 88d8 1a3d e0f7 02bd 325a 35bc
000001b0: 2985 f6bb 758c 0dbc 2f8a e7bb c986 c33c
000001c0: 724e fd3c d589 61bc fb16 bb3b 0cd2 2abd
000001d0: 29fa 66bc b5d2 2bbb a7db 07bb 4d64 dc3b
000001e0: 1cf1 843b d2ae 54bc 0703 fe3c c774 80bc
000001f0: 8e95 183d d0e2 d93c c1c1 a8ba 2522 96bc
00000200: 40c3 ef3c 690b 893b 89f1 a2bc ce93 d83c
00000210: 7d38 153c 480d 473d ca4f 1abd bc2c 2a3c
00000220: 564f 15bd dfa6 78bc 9226 43bb 560f 003d
00000230: d570 30bc 342f 9ebc 6cf4 faba 4804 18bc
00000240: 5341 0ebd 9fca 13b7 cc22 b53c b5af b7bc
00000250: 701d 0fbd 446b 08bd 5a6f 953c 4100 ebbb
00000260: 06db f23c ba8e ddbb 8d0c 6bbb 46c9 003d
00000270: b869 5b3c 0a49 0abd ee97 413b f0d3 d7bb
00000280: 9efc b7bc d893 2b3d ebb6 b13c d400 9dbc
00000290: 6685 01bd 9b2f b03c b4c3 18bd a008 0c3c
000002a0: d4ef a1bc 4a0f 2e3c dd79 063c 622b aa3c
000002b0: 8c6d a0bb 5f4b 953b 4e68 cdbc 1b74 0a3b
000002c0: bcc5 5a3c 973c 453d 78a2 483d 1e8e fdba
000002d0: f88a 11bc 057b 763b a274 9dbc e928 4abc
000002e0: a9b1 b2bc 9a97 bcbc c2b8 323d 387d ab3c
000002f0: 48df 3fbc 5cb1 1fbd 4de5 d73c a725 93bc
00000300: 7e8e 1dbd 3cf1 12bd c0a3 bc3c fe88 5b3c
00000310: bc90 0f3c 51a2 0ebd 9d79 a93c 39be 02bd
00000320: 5b9e 663c ac50 303c abf8 ccbc e893 863b
00000330: 487e debc 8c45 2e3d 0c5c 38bc cfbf b13c
00000340: d76e 17bd 548c 793c 58c8 27bd 2f2e 8bbb
00000350: ca26 4f3c a507 9aba a87b e53c 6a6f 133d
00000360: 420c f5bc 6d6f 073d b460 f4bc b97c e6bc
00000370: 27e7 d6bb e6fb 283d db2e 073d 44e4 3abb
00000380: 91de 6abc 57ad 07bc d5b3 15bc f813 ea3c
00000390: 4852 1e3c 17dd 01ba e75f e4bc 04b6 ba3b
000003a0: fb33 193d a5f8 193d d317 313c 3d9e 2b3d
000003b0: 34b5 61ba 776d 363d 78b3 033d dad5 1d3d
000003c0: e055 fa3c 943b 08bd 736d dd3c 6110 eebc
000003d0: 7248 a7bc e442 c5bc 55ca 8cbc 5f84 1ebd
000003e0: 0dbd 413d 8bd9 2abc 8693 fc3c e5ff 223d
000003f0: 09c4 1a3d 1b8e 2c3d 1ac7 943b 6fb2 31bd

net.3.bias f4 [32]
-0.03901897 0.023861513 0.011295398 0.023681242 0.04179466 0.042288706 0.008308533 -0.036117364
0.024020163 0.016831309 -0.01870773 0.04317433 0.049459398 0.0151900705 -0.038607437 0.03253037
-0.009274777 -0.041631665 -0.04156935 0.025074117 0.005662362 0.037837274 -0.0018820957 -0.032231204
0.013963005 0.022785902 0.020117944 0.016759587 0.022087947 0.04839357 0.041417245 0.003251376
00000000: 5bd2 1fbd 3879 c33c 5510 393c 2aff c13c
00000010: e130 2b3d ec36 2d3d 8320 083c cdef 13bd
00000020: efc5 c43c d0e1 893c f440 99bc 91d7 303d
00000030: f095 4a3d c6df 783c d522 1ebd 913e 053d
00000040: 3cf5 17bc f785 2abd 9f44 2abd 3c68 cd3c
00000050: 568b b93b 42fb 1a3d a7b0 f6ba de04 04bd
00000060: 16c5 643c 80a9 ba3c 63ce a43c 674b 893c
00000070: c8f1 b43c 5638 463d 21a5 293d 0a15 553b

net.6.weight f4 [64, 32, 4, 4]
-0.039886285 -0.03668618 -0.012754985 0.022673355 -0.025768004 -0.0029643835 0.023110187 -0.03396444
-0.0072069066 0.019835737 -0.014388183 0.028037872 -0.042669322 0.031634476 -0.041925073 -0.0036823445
0.024954932 0.00041044055 0.013230952 0.03582074 -0.040634662 -0.004759851 0.03054935 -0.012236005
0.03637041 -0.022397399 0.020979209 -0.008055558 0.039997537 -0.030281283 -0.023633942 -0.032334737
0.006308876 -0.0023297376 0.040411524 -0.034504876 0.008436752 -0.04064379 0.030095644 -0.036835693
-0.008202368 0.013922428 0.0436171 0.029946655 -0.011049033 0.013468794 0.025105525 0.0036639818
0.03867184 -0.019190144 -0.018161215 0.024215275 0.035032727 -0.002030611 -0.018377194 -0.035015948
-0.02637641 -0.03532486 -0.010664239 -0.007206676 -0.027858801 0.010932583 -0.021957682 0.013444647
0.028050471 0.0030448192 0.03236857 0.012444554 0.00048342667 0.037910897 -0.043024227 0.044153675
-0.010989478 0.04027576 -0.0037029018 0.010910323 -0.014965892 -0.026485253 -0.037484 -0.013877638
-0.033755556 0.03193514 0.02736231 0.012150712 -0.0067463988 -0.042502403 0.01209937 0.021374699
-0.044618163 -0.031311635 -0.008555204 0.0073353224 -0.015507822 0.018154508 -0.016617322 0.031810317
-0.027612044 0.023608811 0.010373938 0.0033415013 0.0009083897 0.0031711713 0.033506285 0.038605794
0.0058095846 0.0015884626 0.026877927 0.01994349 -0.017035242 -0.019346628 -0.039199658 -0.026245091
-0.019738698 0.019644441 0.031870794 -0.0065151607 -0.031026378 0.0069875573 0.035519134 -0.036100134
0.019021908 -0.009658503 0.007576347 -0.025421437 -0.014189584 -0.03425088 0.028974684 -0.0025092
0.017588716 -0.005461457 -0.038360536 -0.01686087 0.008951794 -0.026252905 0.01171498 0.03568372
0.036463458 -0.021178784 0.030227624 0.010833097 -0.04375857 -0.04106796 0.012039835 -0.041910753
-0.00944972 -0.027902577 0.031118857 -0.018048264 0.024432207 -0.039310846 0.040411822 -0.032529432
0.032974236 -0.00692414 -0.012353784 0.007975168 0.036099598 -0.023962712 -0.02294227 0.024565376
-0.0180712 -0.017352626 0.011624818 0.042361267 -0.034198273 -0.016254567 0.0005931648 0.022632893
0.021499751 0.008818581 0.0071942788 0.03168524 -0.029377596 0.012328384 0.04064295 -0.031173946
0.003533175 -0.0025394575 0.046250053 -0.024588807 0.0386557 0.028673045 0.02749333 -0.03915672
0.007694717 -0.022477318 0.043158405 -0.017152103 -0.035660505 0.023181055 -0.0077313227 -0.02469748
0.020267004 -0.036794268 -0.03140702 -0.016939461 0.022425566 0.011522432 0.038128756 0.01252981
0.02698042 -0.006705019 0.0045477967 0.006901599 0.0299025 0.011636282 0.014166147 0.027511615
-0.035234954 0.029652135 0.03286641 0.028903428 -0.042100556 -0.036742177 -0.032668408 -0.019919232
0.037328 0.03967045 -0.023743294 0.04404432 0.00326249 -0.021734137 -0.033123128 -0.02564391
0.0015876875 -0.025658684 0.028635884 0.04053465 -0.043527752 -0.0030472756 0.042304162 0.042513005
-0.030146902 0.01722557 0.041406374 0.0077867787 0.016764345 0.022347685 -0.016399017 -0.032712694
-0.029261662 0.04020152 -0.013707561 -0.024974072 0.0068639694 0.028502295 0.031740382 -0.025517674
-0.03669423 -0.023092182 0.023924312 0.031924937 0.029035555 0.039677512 -0.040483944 0.0025782755
00000000: cd5f 23bd 3f44 16bd 49fa 50bc 79bd b93c
00000010: 6c17 d3bc 1a46 42bb 9351 bd3c 4c1e 0bbd
00000020: ea27 ecbb 8e7e a23c 6abc 6bbc aeaf e53c
00000030: 07c6 2ebd 2793 013d a0b9 2bbd 7d53 71bb
00000040: 496e cc3c 6630 d739 a3c6 583c c5b8 123d
00000050: 8870 26bd 86f8 9bbb a142 fa3c 8679 48bc
00000060: 24f9 143d c07a b7bc 97dc ab3c 76fb 03bc
00000070: 75d4 233d 7410 f8bc f89b c1bc 6e71 04bd
00000080: b0ba ce3b 83ae 18bb 8e86 253d fc54 0dbd
00000090: 4d3a 0a3c 1a7a 26bd 248b f63c 06e1 16bd
000000a0: 3a63 06bc e51a 643c d8a7 323d b052 f53c
000000b0: 0107 35bc 37ac 5c3c 1aaa cd3c 6a1f 703b
000000c0: 5d66 1e3d a634 9dbc d4c6 94bc 1d5f c63c
000000d0: 7a7e 0f3d 0014 05bb c58b 96bc e26c 0fbd
000000e0: 5713 d8bc cdb0 10bd 0fb9 2ebc fb25 ecbb
000000f0: 2438 e4bc 941e 333c 99e0 b3bc f046 5c3c
00000100: 1aca e53c 978b 473b e894 043d 3ee4 4b3c
00000110: 6e74 fd39 7548 1b3d 2c3a 30bd 7cda 343d
00000120: 360d 34bc 32f8 243d 62ac 72bb 36c1 323c
00000130: 8033 75bc 9af7 d8bc d388 19bd 085f 63bc
00000140: 4443 0abd 6cce 023d ec26 e03c c813 473c
00000150: e510 ddbb 0017 2ebd 703c 463c fe19 af3c
00000160: 89c1 36bd a140 00bd 202b 0cbc 255d f03b
00000170: 8514 7ebc c3b8 943c 0d21 88bc 894b 023d
00000180: a732 e2bc 4467 c13c 73f7 293c 17fd 5a3b
00000190: 0021 6e3a 6dd3 4f3b e33d 093d 1c21 1e3d
000001a0: 545e be3b f633 d03a 192f dc3c 8860 a33c
000001b0: 7e8d 8bbc d27c 9ebc d28f 20bd f2ff d6bc
000001c0: 0db3 a1bc 61ed a03c f38a 023d 217d d5bb
000001d0: 082b febc e1f7 e43b 837c 113d bcdd 13bd
000001e0: d5d3 9b3c b33e 1ebc 0143 f83b 9e40 d0bc
000001f0: 6e7b 68bc a74a 0cbd 515c ed3c 6471 24bb
00000200: 3616 903c 06f6 b2bb f01f 1dbd cf1f 8abc
00000210: 8caa 123c 5510 d7bc 30f0 3f3c 1829 123d
00000220: b55a 153d 217f adbc ec9f f73c 4d7d 313c
00000230: 303c 33bd e136 28bd ba42 453c 9caa 2bbd
00000240: 00d3 1abc f293 e4bc f9ec fe3c f4d9 93bc
00000250: 0d26 c83c 6904 21bd de86 253d 953d 05bd
00000260: fe0f 073d e5e3 e2bb 8767 4abc 47aa 023c
00000270: 2cdd 133d 734d c4bc 6df1 bbbc 543d c93c
00000280: 0e0a 94bc 1827 8ebc 0576 3e3c 0283 2d3d
00000290: 7d13 0cbd 4c28 85bc 9e7e 1b3a 9e68 b93c
000002a0: 3f20 b03c cf7b 103c fcbd eb3b 62c8 013d
000002b0: 49a9 f0bc fefc 493c 3979 263d 8160 ffbc
000002c0: d78c 673b 076d 26bb b270 3d3d 776e c9bc
000002d0: 7055 1e3d bce3 ea3c b139 e13c cc62 20bd
000002e0: f723 fc3b 5a22 b8bc dec6 303d 9182 8cbc
000002f0: c010 12bd 32e6 bd3c 0957 fdbb 5f52 cabc
00000300: fd06 a63c 96b5 16bd a6a4 00bd a0c4 8abc
00000310: d2b5 b73c 95c8 3c3c e62c 1c3d d549 4d3c
00000320: 0b06 dd3c c7b5 dbbb af05 953b cf26 e23b
00000330: 16f6 f43c 1ba6 3e3c 2119 683c 0a60 e13c
00000340: 8752 10bd 09e9 f23c ee9e 063d e2c6 ec3c
00000350: a271 2cbd f77e 16bd 4fcf 05bd a82d a3bc
00000360: 3fe5 183d 7b7d 223d 4c81 c2bc d167 343d
00000370: 80cf 553b ca0b b2bc 1eac 07bd 2d13 d2bc
00000380: f419 d03a 2932 d2bc cd95 ea3c a907 263d
00000390: 284a 32bd cdb4 47bb 2147 2d3d 1e22 2e3d
000003a0: a3f6 f6bc a31c 8d3c bb99 293d 3c28 ff3b
000003b0: 6155 893c 7e12 b73c 3b57 86bc bffd 05bd
000003c0: 27b6 efbc 59aa 243d ae95 60bc 6d96 ccbc
000003d0: 26eb e03b a57d e93c 3402 023d 710a d1bc
000003e0: b04c 16bd d12b bdbc ebfc c33c b9c3 023d
000003f0: f9db ed3c e384 223d 7ed2 25bd 49f8 283b

net.6.bias f4 [64]
-0.04337066 -0.040608183 0.0035829213 0.03867857 0.002354061 -0.03528816 0.012052714 -0.012451423
-0.040573005 -0.0082004685 -0.026448963 -0.024849322 0.019363508 0.026245864 0.037369724 0.008002637
0.021852842 -0.0038786826 -0.010788835 -0.013443703 0.024019348 0.010139127 0.01102331 -0.040821865
0.008662295 0.007253274 0.041568924 -0.022028442 -0.027212206 -0.02157923 0.026428273 0.008160735
0.008515364 0.036023684 -0.013328517 -0.030653266 -0.014606505 0.043054953 -0.029538464 -0.013659152
-0.009823418 -0.016142687 0.031074863 0.04916535 -0.015984632 0.04768258 0.014106124 -0.0028972253
0.04500019 -0.03499258 -0.01593435 0.033994492 0.041891735 0.02517077 -0.02377984 -0.014109867
0.00811263 0.004248743 -0.022861307 0.039103687 -0.019307477 -0.009050724 -0.02837256 0.03911724
00000000: 6fa5 31bd c454 26bd 72cf 6a3b 6c6d 1e3d
00000010: 9746 1a3b 518a 10bd bf78 453c 0e01 4cbc
00000020: e12f 26bd 425b 06bc 7fab d8bc ce90 cbbc
00000030: 38a0 9e3c 9101 d73c ff10 193d 7e1d 033c
00000040: bb04 b33c 7f31 7ebb a7c3 30bc fa42 5cbc
00000050: 39c4 c43c 951e 263c 1d9b 343c d434 27bd
00000060: 4cec 0d3c dfac ed3b 2d44 2a3d fe74 b4bc
00000070: 22ec debc edc6 b0bc 1b80 d83c 9ab4 053c
00000080: 0684 0b3c 928d 133d da5f 5abc 8f1c fbbc
00000090: 1f50 6fbc 645a 303d a6fa f1bc a3ca 5fbc
000000a0: 67f2 20bc ab3d 84bc b690 fe3c 9b61 493d
000000b0: 34f2 82bc cf4e 433d 5f1d 673c 60df 3dbb
000000c0: 1f52 383d 6154 0fbd c188 82bc cf3d 0b3d
000000d0: ab96 2b3d ee32 ce3c f0cd c2bc 122d 67bc
000000e0: d6ea 043c 0a39 8b3b a347 bbbc 302b 203d
000000f0: b72a 9ebc 7d49 14bc 926d e8bc 6639 203d

net.9.weight f4 [1, 3136]
-0.017698916 0.0012235595 -0.0092102755 0.01604139 -0.012186649 0.010648414 0.007313916 -0.016695559
0.0025125325 -0.010847537 -0.012163041 0.01646013 -0.010594198 0.004683334 -0.015227579 0.014178502
0.00051301054 9.0468035e-05 -0.011516422 -0.015727116 0.012706428 0.011139851 -0.0018165724 -0.006163226
0.0039624013 -0.0026303295 0.0012688844 0.009801141 0.012790346 -0.0029512655 -0.00031418586 -0.004132463
-0.0018783864 -0.007886956 -0.017148437 0.012248223 -0.0061348644 -0.011864983 -0.013687055 0.010009245
-0.013371072 -0.011212155 0.021802291 0.0024059277 -0.008180207 0.012517546 -0.010524275 0.0068899468
-0.010783961 -0.007885238 -0.002025968 0.016785447 0.01055035 0.015959043 -0.0064021633 0.006644557
0.012663478 0.023244357 0.013022869 0.023000972 0.02678553 0.0054070796 0.02515556 0.005006598
0.0076398775 0.017846089 0.016284553 0.0073397774 0.0228964 0.017251166 0.018883955 0.0009875534
0.0007901656 0.010027353 0.0070006074 -0.0059261625 0.006581135 0.010272505 -0.0007508741 0.012942132
0.020963574 0.010123199 0.023435105 0.017037746 0.018333588 0.027583737 0.017989067 0.024145877
0.0041570123 0.022235144 0.011310485 0.0038233704 -0.0047924677 0.005424712 0.008722683 0.017736629
0.01864306 -0.011569167 -0.014400983 -0.015044553 0.01944872 -0.005178469 -0.00038340117 0.0040708086
0.0171216 0.010767141 0.018201156 0.0119571425 0.0036059848 0.0058941655 -0.008404466 0.0034273216
-0.009888432 0.015180274 0.0040218746 0.002356324 0.020538013 0.010860959 0.0041365074 0.01341165
-0.005291888 -0.0040113563 0.020787943 -0.00666569 0.023458678 0.027759029 0.0036020149 -0.00063623744
0.016724015 -0.008186512 0.019916177 -0.0027692148 0.024198538 0.011654043 0.009982082 0.014318731
0.004453711 -0.0076530823 0.02664101 0.013407176 0.006762388 -0.0038947915 0.007176722 -0.00029936314
0.008719043 0.025946913 0.022665625 0.005083628 -0.0045772307 0.012168429 -0.009323034 0.015483136
0.0010376945 -0.020577157 0.002231629 0.020764608 -0.0027282403 0.021949459 -0.006444688 -0.005998345
0.0013158608 0.010110368 0.022278672 0.020732425 0.014860775 0.01871799 0.018167691 0.010031027
-0.0013707305 0.010086837 0.011729332 0.0053375475 0.021999596 0.01683586 -0.01173852 0.02006224
0.018307354 0.006930323 -0.0011838367 0.008427375 0.005298236 -0.0078654345 0.026243923 0.017024627
0.013391749 0.008614436 -0.009588353 0.005509368 -0.00056826416 0.0058572236 0.017340694 0.015437632
0.0021173889 -0.0026921893 0.00034534885 0.0085008545 0.010158952 0.022599285 0.007991211 0.0014781873
0.008116242 -0.0037631332 0.0105310045 0.022221288 0.009616733 0.010012089 0.013205405 0.005485585
-0.0073328363 0.0005726343 0.003627529 -0.000606511 -0.0043065134 -0.0047301156 0.0042290487 0.01178169
0.0072873062 0.014345981 -0.008283836 0.007342775 0.021863611 -0.005583088 0.015708243 0.007654819
0.02110368 0.0036503214 -7.651635e-06 0.012825891 0.0018152061 -0.00023853697 -0.0129314205 0.01783645
0.02360876 -0.006306306 -0.0064001046 0.0016842949 0.017812751 0.0028755574 -0.0004246789 0.018785905
-0.011717644 -0.014105195 -0.005941071 0.0062462348 0.014346749 0.0037728567 -0.0032976333 0.014363204
0.005782506 0.006601504 -0.004987186 -0.0031891393 0.009733171 0.020335922 0.0071524545 0.010760036
00000000: 51fd 90bc d85f a03a b2e6 16bc 3c69 833c
00000010: 83aa 47bc af76 2e3c 93a9 ef3b 20c5 88bc
00000020: 4da9 243b deb9 31bc 7e47 47bc 65d7 863c
00000030: 4993 2dbc a776 993b 187d 79bc f34c 683c
00000040: 8e7b 063a a8b9 bd38 60af 3cbc 27d6 80bc
00000050: 9f2e 503c ec83 363c 0e1a eeba e3f4 c9bb
00000060: 08d7 813b 9b61 2cbb b250 a63a f794 203c
00000070: 998e 513c 056a 41bb 50b9 a4b9 9d69 87bb
00000080: 3034 f6ba 4b38 01bc e17a 8cbc c5ac 483c
00000090: f906 c9bb 5865 42bc ab3f 60bc d1fd 233c
000000a0: 5712 5bbc 30b3 37bc b89a b23c c5ac 1d3b
000000b0: 4606 06bc 6516 4d3c 026e 2cbc 10c5 e13b
000000c0: 36af 30bc 1631 01bc 1ac6 04bb a281 893c
000000d0: 60db 2c3c 8abc 823c 3dc9 d1bb 96ba d93b
000000e0: 7a7a 4f3c f36a be3c df5d 553c 896c bc3c
000000f0: 546d db3c df2d b13b 0813 ce3c 630e a43b
00000100: f057 fa3b f631 923c 2f67 853c 8482 f03b
00000110: 3b91 bb3c 5152 8d3c 86b2 9a3c cb70 813a
00000120: 1e23 4f3a c449 243c 5a65 e53b 4130 c2bb
00000130: 90a6 d73b 024e 283c 4fd6 44ba 3c0b 543c
00000140: cdbb ab3c c6db 253c fafa bf3c be92 8b3c
00000150: 5230 963c 4af7 e13c cf5d 933c 93cd c53c
00000160: 8c37 883b 7a26 b63c 9d4f 393c 8391 7a3b
00000170: 220a 9dbb c8c1 b13b 96e9 0e3c 684c 913c
00000180: 55b9 983c 9a8c 3dbc 1af2 6bbc 6e7d 76bc
00000190: ec52 9f3c 25b0 a9bb 3c03 c9b9 6b64 853b
000001a0: 9942 8c3c aa68 303c 971a 953c e4e7 433c
000001b0: 6352 6c3b d823 c13b e3b2 09bc ea9c 603b
000001c0: 1703 22bc afb6 783c eec9 833b 8f6c 1a3b
000001d0: 563f a83c 2af2 313c 8a8b 873b 8abc 5b3c
000001e0: 9367 adbb b271 83bb 7a4b aa3c dc6b dabb
000001f0: 6a2c c03c e766 e33c c80f 6c3b 2cc9 26ba
00000200: cd00 893c b820 06bc 4027 a33c b77b 35bb
00000210: 033c c63c 99f0 3e3c e38b 233c 1c99 6a3c
00000220: 70f0 913b b5c6 fabb 3f3e da3c c6a9 5b3c
00000230: 0697 dd3b c23f 7fbb b52a eb3b d7f3 9cb9
00000240: 51da 0e3c 9f8e d43c 43ad b93c 9094 a63b
00000250: 98fc 95bb 175e 473c a4bf 18bc fbac 7d3c
00000260: 4003 883a 6d91 a8bc 8640 123b 8a1a aa3c
00000270: 47cc 32bb 5acf b33c f62d d3bb c48d c4bb
00000280: f678 ac3a f5a5 253c c381 b63c 0cd7 a93c
00000290: 9c7a 733c 7856 993c 69d4 943c 2d59 243c
000002a0: 15aa b3ba 4343 253c 622c 403c 98e6 ae3b
000002b0: 7f38 b43c 5ceb 893c ec52 40bc 9159 a43c
000002c0: 4ef9 953c c317 e33b f82a 9bba f912 0a3c
000002d0: d39c ad3b 06de 00bc 7ffd d63c 3b77 8b3c
000002e0: 1169 5b3c 9023 0d3c 7818 1dbc ee87 b43b
000002f0: 90f7 14ba f4ed bf3b 120e 8e3c 1fee 7c3c
00000300: e4c3 0a3b 716f 30bb f00f b539 2b47 0b3c
00000310: bc71 263c 2322 b93c 91ed 023c bcbf c13a
00000320: fcf9 043c e69e 76bb 3c8a 2c3c 6b09 b63c
00000330: 808f 1d3c bf09 243c 7c5b 583c 6cc0 b33b
00000340: 4a48 f0bb d61c 163a d6bb 6d3b 44fe 1eba
00000350: a71d 8dbb 16ff 9abb d593 8a3b fd07 413c
00000360: 5bca ee3b 680b 6b3c edb8 07bc a99b f03b
00000370: 511b b33c 56f2 b6bb 93ae 803c 47d5 fa3b
00000380: a0e1 ac3c 3b3a 6f3b 865f 00b7 b023 523c
00000390: 36ec ed3a c81f 7ab9 4fde 53bc bf1d 923c
000003a0: 2967 c13c 21a5 cebb f8b7 d1bb 8fc3 dc3a
000003b0: 0cec 913c d973 3c3b 70a7 deb9 e6e4 993c
000003c0: 5cfb 3fbc 7a19 67bc 51ad c2bb 37ad cc3b
000003d0: a00e 6b3c 0842 773b 1b1d 58bb a553 6b3c
000003e0: 2d7b bd3b 6e51 d83b 8c6b a3bb e100 51bb
000003f0: e177 1f3c 8597 a63c 235f ea3b dd4a 303c
